experiment1/bestModels/(0.017, 'KAN 64x64, g=5, s=3.yaml')/best_performed_model.pth (torch, 384890 bytes, 24 tensors)

representation.model.0.base_weight f4 [64, 1]
00000000: e740 193f a70d 373f e362 bebc 114a 07bd
00000010: 76bc 3f3f f26c 52be b460 9dbb c336 edbe
00000020: a64b 67be 7118 8a3f 6c9a 953f 0d36 8f3e
00000030: 8769 153f f694 9dbe e27f 893f 3359 16bf
00000040: 13f9 113f c926 a43d 09bf 36be a6d7 2cbe
00000050: 4e2e 423e a783 fcbd af11 4e3d 4ea4 133e
00000060: e23b 27bf 65d2 f73e f083 263f 235c 09be
00000070: 771b 953e 0e5b 2ebf 553c 0dbf 5b82 7abf
00000080: 8b68 81be 3ea8 4cbf 7440 de3e 61e9 61be
00000090: e473 88be 755c f13e e9a3 04be 198f 37bf
000000a0: f286 123f 4625 8a3f 078c 103f 43d5 1ebf
000000b0: 40dc 08bf fe20 8f3f a869 0f3f 19ad a03e
000000c0: d50b 90be 3a80 01bf bc2e 413f 3e8e 71be
000000d0: 013d 12ba 3fe0 f23c a240 f93e 3a2b 9a3e
000000e0: 89d8 7dbe eb79 533f 0f12 763f e8fe 883e
000000f0: bb1e da3e 3eef d2be 4c99 913f 108f 5ebb
0.5986466 0.71505207 -0.023240512 -0.03302962 0.74896944 -0.20549372 -0.0048027877 -0.46330842
-0.22587451 1.0788709 1.1687751 0.27970925 0.58364147 -0.3077771 1.0742152 -0.5872986
0.5702068 0.0801521 -0.17846312 -0.16879138 0.18962976 -0.12329798 0.050309833 0.14418146
-0.6532575 0.48402706 0.6504507 -0.13414054 0.29122517 -0.6810769 -0.55170184 -0.97855157
-0.25275072 -0.7994422 0.4340855 -0.22061683 -0.26650918 0.47140852 -0.12953152 -0.71702725
0.5723716 1.0792625 0.56463665 -0.6204416 -0.53461075 1.1181943 0.56020594 0.31382063
-0.28134027 -0.50586283 0.75461936 -0.23589417 -0.00055785483 0.029647944 0.48682123 0.30111104
-0.24789633 0.8260791 0.96121305 0.26756978 0.4260157 -0.41198152 1.1374907 -0.0033959784

representation.model.0.spline_weight f4 [64, 1, 8]
00000000: f065 d6be 17c1 b7be a5d4 6dbe c170 33be
00000010: 5eec 46be e461 633d 0a8f 7fbd b9d6 1bbf
00000020: e247 e3be ac07 dbbe 146d 91be 804f 27be
00000030: ff3e e1bd bae8 1cbe b64b 0fbe a98f cbbe
00000040: 8dac 3dbc fe5b febd 2857 aebd 6d12 91bd
00000050: f33b 20bd cd48 b0bc df5d 7f3c e5b9 d4bc
00000060: e4d9 76bc 0f6b 19be e951 d5bd 9498 9cbd
00000070: f9e0 1ebd c0ae 38bc 812c 013d 88dc 473c
00000080: c10f 76be ed7e e2be c909 61be 85ba 0dbe
00000090: b6f8 37be 80b5 053e 0b45 4bbe b833 76bf
000000a0: 7119 0bbf b74d c6be f9d4 55be 0314 4abe
000000b0: db7b 9cbd 6cc2 97bd 59b6 0bbe 0f64 8dbe
000000c0: 950e b9bb 9684 e2bc f3f5 cbbc db3a b9bc
000000d0: 4a49 b1bc 97ac afbc aae4 a4bc 3c9f 55bc
000000e0: d9d8 90be 82dd 903e 6f0c 66bc 22ee 603e
000000f0: ba36 74be 56a7 c9be c967 553e 3a81 873e
00000100: a045 ab3d 5707 b73d ec9d afbd ed2a efbc
00000110: 215c 65be 75bb 63be 1dcf 8cbe 757e f8be
00000120: 124a 10bf 407b c9be 16b8 acbe 15c7 0dbe
00000130: 4740 10bd baf0 1abe 66d0 86be 5a94 09bf
00000140: 0d9f 83be 655d a8be 797c 62be e9d6 48bc
00000150: 6de8 48be 2c8c ccbd a08c 5ebe e469 12bf
00000160: a37b 09bf 4250 aabe 134d 6ebe 7530 1ebe
00000170: a604 02be 7eb3 bcbc 8648 0ebe d746 aabe
00000180: 76d3 a5be 090d 93be 2c69 d6bd 4c77 293d
00000190: d200 003e 071b 5ebe fb69 bd3b e560 823e
000001a0: 64ed d33f eecb 143f 214c 0cbf 6949 043e
000001b0: 4aed 75bc a832 f0bd 17c6 c5bd 940a 13be
000001c0: 2153 bcbe 7b07 e8be 4c73 d4bd 3699 5b3d
000001d0: 37a3 ddbe b98d 92bd f55b 10be 0d42 d2be
000001e0: 96d5 4a3e 3f2c 91bd e167 d23d 2e1c f43d
000001f0: 2cf8 9e3e cea3 9c3e c7c8 603d 25ad 15bf
00000200: 3b3e bbbe 08c1 d9be a09a afbe a41b 90be
00000210: 9176 88be 8f34 30be d0d2 36be 73cd b4be
00000220: e87d 1c3f b298 9c3e db07 8b3e c66d 963e
00000230: 59de c4be 4f3f 95bd 2e17 87be 3d75 803e
00000240: 1252 c8bd 47ab af3d 795e d43b 4c49 35bd
00000250: 5ea5 c4bd 901b 1bbe 956b 5abe 2dd2 83be
00000260: 5cad 93be 9555 0b3f fe51 24be 679d 1abe
00000270: 5ce2 143d dcb7 43be b614 1bbe d075 d4be
00000280: 84d1 d9bf 40ad 9abe 8a59 9e3e e14c cdbe
00000290: 9a32 583e 7ba8 643e d2bc f7bc 1c82 2dbf
000002a0: 9150 a13e 9ec8 e73e 0f99 7abe d506 32bd
000002b0: 1a37 30bd 6770 17be c995 47be c071 a7be
000002c0: 41fc e4be 50cd a13d 1c1e 033e 9d6d 96be
000002d0: 8cc6 253f 49c0 bdbe af89 ffbc 64b8 853f
000002e0: 60f2 9e3d fc75 20bd 27b8 623e 694f 89bd
000002f0: 83ea 043f 6e12 42be fc21 debd e992 123f
00000300: 40ce 88bf ce47 38be 5e9b 9dbd 6719 a9be
00000310: b700 50be 61da 11be 3fd1 013e b373 263e
00000320: af32 b73e 0d51 df3e c72b 9b3e b570 ab3e
00000330: 535e 973e 0812 a03d 8360 3e3e 5fd9 d03e
00000340: 06c1 9cbe 3333 debe eaad 9bbe 5911 59be
00000350: 85fc 68be 903f a9bd 88b4 29be 3015 e0be
00000360: fb3d c13e 3eec a23e a948 aabe a87e 883d
00000370: 10e7 c5bc 5a60 72be f1c3 253e ed61 d2be
00000380: f388 de3e 8858 c53e 14ed 943e 3d70 563e
00000390: 06f8 5d3e 2bc9 023e eb68 0b3e 05fb 3a3e
000003a0: e620 523e ad8e 34bc 72b8 5f3e c052 513e
000003b0: 11a8 363e beef 3a3e 36bf c4bd 020d a9be
000003c0: 96e7 62bf 5676 f4bd 3977 e2bd 4c2a b0be
000003d0: 3a17 91be 00b8 7ebe 45eb 213d a76c c93e
000003e0: 9098 25bf 58e6 42bf 3269 b2be 839c ca3d
000003f0: 7da4 8b3d 9c7f 9f3f 3489 57bc a3d8 98bb
-0.41874647 -0.35889503 -0.23225649 -0.17523481 -0.19426104 0.055513278 -0.062392272 -0.60874516
-0.4439078 -0.4277929 -0.28403533 -0.1633892 -0.10998344 -0.15323153 -0.13993725 -0.39758042
-0.011576784 -0.1241989 -0.085127175 -0.070835926 -0.039119672 -0.02151909 0.015586345 -0.025967548
-0.015066598 -0.14982246 -0.10416014 -0.076462895 -0.03878877 -0.011272132 0.031536583 0.012198575
-0.24029447 -0.44237462 -0.21976389 -0.13840683 -0.1796597 0.13057518 -0.19850557 -0.96172667
-0.54335696 -0.38731167 -0.20882024 -0.19734196 -0.07640811 -0.0741013 -0.13643779 -0.276154
-0.0056474903 -0.027651113 -0.024897551 -0.022611072 -0.021641392 -0.021444602 -0.020128567 -0.013038453
-0.28290442 0.28293997 -0.01404105 0.2196584 -0.23849002 -0.3938548 0.20840372 0.2646578
0.08362889 0.08936947 -0.08575043 -0.029195273 -0.22398426 -0.22239478 -0.27501765 -0.4853398
-0.5636302 -0.39351845 -0.33734196 -0.13845475 -0.03521755 -0.15130892 -0.2633087 -0.5374199
-0.25707284 -0.32883754 -0.22117795 -0.01225827 -0.19619913 -0.09987673 -0.21733332 -0.57192826
-0.5370428 -0.33264357 -0.23271589 -0.15448172 -0.12697086 -0.023034807 -0.13894853 -0.33257172
-0.32387894 -0.28720883 -0.10469279 0.041373536 0.12500313 -0.21689998 0.005780456 0.2546455
1.6556821 0.5812367 -0.54803663 0.12918629 -0.015010187 -0.11728412 -0.09656923 -0.14359504
-0.36782172 -0.45318207 -0.10373554 0.05361291 -0.43288586 -0.07155938 -0.14097579 -0.41066018
0.19808039 -0.070885174 0.102737196 0.11919437 0.31048715 0.30593723 0.054878976 -0.5846732
-0.36570916 -0.42530084 -0.34297657 -0.28146088 -0.2665296 -0.1720755 -0.17853856 -0.35312995
0.6112962 0.30585247 0.2715443 0.29380625 -0.38450888 -0.07287466 -0.26384872 0.25089446
-0.09781279 0.085775904 0.0064809886 -0.044259354 -0.09601854 -0.15147233 -0.21330102 -0.2574629
-0.288432 0.5442746 -0.16046903 -0.15099107 0.036348686 -0.19113106 -0.1514462 -0.41496134
-1.7017064 -0.30210304 0.30927688 -0.40097716 0.21113053 0.22329895 -0.030241404 -0.67776656
0.3150678 0.45270246 -0.2447245 -0.043463547 -0.0430213 -0.14788972 -0.19490732 -0.32703972
-0.44723704 0.079004884 0.12804455 -0.29380503 0.64756083 -0.37060764 -0.031193582 1.0446897
0.07761073 -0.03917502 0.22140561 -0.067045994 0.51920336 -0.18952343 -0.10846326 0.5725542
-1.0687943 -0.17996141 -0.076956496 -0.33027193 -0.20312773 -0.14243461 0.12677477 0.16255073
0.35780856 0.43616524 0.30306837 0.33484426 0.2956415 0.07815939 0.18591504 0.4079084
-0.30616015 -0.43398437 -0.30406123 -0.21198024 -0.22752579 -0.08264077 -0.16572773 -0.43766165
0.377426 0.31820863 -0.3325856 0.06664783 -0.02415803 -0.23669568 0.16188027 -0.41090336
0.4346386 0.38544106 0.29087126 0.20941253 0.21676645 0.12772052 0.13614242 0.18259819
0.20520362 -0.011020345 0.21847704 0.20441723 0.1783755 0.18255517 -0.09606783 -0.33017737
-0.8863462 -0.11936633 -0.11057896 -0.3440727 -0.28338033 -0.24874878 0.03953101 0.39340708
-0.64685917 -0.76132727 -0.34845883 0.098931335 0.06818483 1.2460818 -0.01315527 -0.004664497

representation.model.0.spline_scaler f4 [64, 1]
00000000: 0074 24bf e2d4 d1be 8659 473e 95fb 4e3e
00000010: 9b99 a3bf f0f7 91bf 482a 3f3f 04b5 b9bf
00000020: 4cb2 2fbf 1612 34bf c316 f7be 274a 33bf
00000030: cfe9 67bf 455b bfbf 55cc 62bf 79e3 973f
00000040: 0889 9dbe 4dc1 7d3f 2574 23bf c558 21bf
00000050: e543 a23f 6e35 06bf c081 fabf 2bbf 80bf
00000060: 9fc6 03bf dd85 c43e c360 7bbe c44b 6abf
00000070: 3036 3f3f 3f64 583f 9b85 f3be 49ef abbf
00000080: 2845 4dbf d37a 77bf b470 db3f a1f5 353f
00000090: a95c 803f 064c 183f 9171 20bf 17ad 45bf
000000a0: 06fb c03e 333d aebf 04af 21bf a828 00bf
000000b0: 9260 7e3f 07e5 853f b866 843f d176 003f
000000c0: bcdb 8a3f 520d 8b3f f134 61bf 333b 7abf
000000d0: fb90 8fbf f404 0bc0 a645 0a3f d981 da3e
000000e0: fe3f 30bf c32d 4a3f b62b 36bf f4ab 913c
000000f0: 6994 03bf 7a54 bd3e 7837 29bf ea15 79b6
-0.642395 -0.4098273 0.19467744 0.20213158 -1.2781252 -1.140379 0.7467389 -1.4508367
-0.68631434 -0.70340097 -0.48259553 -0.7003502 -0.9059114 -1.4949728 -0.88593036 1.1866294
-0.3076861 0.9912308 -0.638491 -0.63026077 1.267697 -0.5242528 -1.9570847 -1.005834
-0.51474947 0.3838338 -0.2454863 -0.9152186 0.7469206 0.84527963 -0.4756287 -1.3432399
-0.8018365 -0.9667179 1.7143769 0.71077925 1.0028278 0.59491 -0.6267329 -0.7721724
0.37691516 -1.3612427 -0.6315768 -0.50062037 0.99366105 1.0460519 1.0343847 0.501813
1.0848308 1.086344 -0.8797141 -0.9774658 -1.121612 -2.1721773 0.54012525 0.4267719
-0.68847644 0.78976077 -0.7116045 0.017782189 -0.5139833 0.36978513 -0.66100264 -3.7116647e-06

representation.model.0.grid f4 [1, 12]
00000000: 9a99 19bf cdcc ccbe cdcc 4cbe 0000 0000
00000010: cdcc 4c3e cdcc cc3e 9a99 193f cdcc 4c3f
00000020: 0000 803f 9a99 993f 3333 b33f cdcc cc3f
-0.6 -0.4 -0.2 0.0 0.2 0.4 0.6 0.8
1.0 1.2 1.4 1.6

target_representation.model.0.base_weight f4 [64, 1]
00000000: e740 193f a70d 373f e362 bebc 114a 07bd
00000010: 76bc 3f3f f26c 52be b460 9dbb c336 edbe
00000020: a64b 67be 7118 8a3f 6c9a 953f 0d36 8f3e
00000030: 8769 153f f694 9dbe e27f 893f 3359 16bf
00000040: 13f9 113f c926 a43d 09bf 36be a6d7 2cbe
00000050: 4e2e 423e a783 fcbd af11 4e3d 4ea4 133e
00000060: e23b 27bf 65d2 f73e f083 263f 235c 09be
00000070: 771b 953e 0e5b 2ebf 553c 0dbf 5b82 7abf
00000080: 8b68 81be 3ea8 4cbf 7440 de3e 61e9 61be
00000090: e473 88be 755c f13e e9a3 04be 198f 37bf
000000a0: f286 123f 4625 8a3f 078c 103f 43d5 1ebf
000000b0: 40dc 08bf fe20 8f3f a869 0f3f 19ad a03e
000000c0: d50b 90be 3a80 01bf bc2e 413f 3e8e 71be
000000d0: 013d 12ba 3fe0 f23c a240 f93e 3a2b 9a3e
000000e0: 89d8 7dbe eb79 533f 0f12 763f e8fe 883e
000000f0: bb1e da3e 3eef d2be 4c99 913f 108f 5ebb
0.5986466 0.71505207 -0.023240512 -0.03302962 0.74896944 -0.20549372 -0.0048027877 -0.46330842
-0.22587451 1.0788709 1.1687751 0.27970925 0.58364147 -0.3077771 1.0742152 -0.5872986
0.5702068 0.0801521 -0.17846312 -0.16879138 0.18962976 -0.12329798 0.050309833 0.14418146
-0.6532575 0.48402706 0.6504507 -0.13414054 0.29122517 -0.6810769 -0.55170184 -0.97855157
-0.25275072 -0.7994422 0.4340855 -0.22061683 -0.26650918 0.47140852 -0.12953152 -0.71702725
0.5723716 1.0792625 0.56463665 -0.6204416 -0.53461075 1.1181943 0.56020594 0.31382063
-0.28134027 -0.50586283 0.75461936 -0.23589417 -0.00055785483 0.029647944 0.48682123 0.30111104
-0.24789633 0.8260791 0.96121305 0.26756978 0.4260157 -0.41198152 1.1374907 -0.0033959784

target_representation.model.0.spline_weight f4 [64, 1, 8]
00000000: f065 d6be 17c1 b7be a5d4 6dbe c170 33be
00000010: 5eec 46be e461 633d 0a8f 7fbd b9d6 1bbf
00000020: e247 e3be ac07 dbbe 146d 91be 804f 27be
00000030: ff3e e1bd bae8 1cbe b64b 0fbe a98f cbbe
00000040: 8dac 3dbc fe5b febd 2857 aebd 6d12 91bd
00000050: f33b 20bd cd48 b0bc df5d 7f3c e5b9 d4bc
00000060: e4d9 76bc 0f6b 19be e951 d5bd 9498 9cbd
00000070: f9e0 1ebd c0ae 38bc 812c 013d 88dc 473c
00000080: c10f 76be ed7e e2be c909 61be 85ba 0dbe
00000090: b6f8 37be 80b5 053e 0b45 4bbe b833 76bf
000000a0: 7119 0bbf b74d c6be f9d4 55be 0314 4abe
000000b0: db7b 9cbd 6cc2 97bd 59b6 0bbe 0f64 8dbe
000000c0: 950e b9bb 9684 e2bc f3f5 cbbc db3a b9bc
000000d0: 4a49 b1bc 97ac afbc aae4 a4bc 3c9f 55bc
000000e0: d9d8 90be 82dd 903e 6f0c 66bc 22ee 603e
000000f0: ba36 74be 56a7 c9be c967 553e 3a81 873e
00000100: a045 ab3d 5707 b73d ec9d afbd ed2a efbc
00000110: 215c 65be 75bb 63be 1dcf 8cbe 757e f8be
00000120: 124a 10bf 407b c9be 16b8 acbe 15c7 0dbe
00000130: 4740 10bd baf0 1abe 66d0 86be 5a94 09bf
00000140: 0d9f 83be 655d a8be 797c 62be e9d6 48bc
00000150: 6de8 48be 2c8c ccbd a08c 5ebe e469 12bf
00000160: a37b 09bf 4250 aabe 134d 6ebe 7530 1ebe
00000170: a604 02be 7eb3 bcbc 8648 0ebe d746 aabe
00000180: 76d3 a5be 090d 93be 2c69 d6bd 4c77 293d
00000190: d200 003e 071b 5ebe fb69 bd3b e560 823e
000001a0: 64ed d33f eecb 143f 214c 0cbf 6949 043e
000001b0: 4aed 75bc a832 f0bd 17c6 c5bd 940a 13be
000001c0: 2153 bcbe 7b07 e8be 4c73 d4bd 3699 5b3d
000001d0: 37a3 ddbe b98d 92bd f55b 10be 0d42 d2be
000001e0: 96d5 4a3e 3f2c 91bd e167 d23d 2e1c f43d
000001f0: 2cf8 9e3e cea3 9c3e c7c8 603d 25ad 15bf
00000200: 3b3e bbbe 08c1 d9be a09a afbe a41b 90be
00000210: 9176 88be 8f34 30be d0d2 36be 73cd b4be
00000220: e87d 1c3f b298 9c3e db07 8b3e c66d 963e
00000230: 59de c4be 4f3f 95bd 2e17 87be 3d75 803e
00000240: 1252 c8bd 47ab af3d 795e d43b 4c49 35bd
00000250: 5ea5 c4bd 901b 1bbe 956b 5abe 2dd2 83be
00000260: 5cad 93be 9555 0b3f fe51 24be 679d 1abe
00000270: 5ce2 143d dcb7 43be b614 1bbe d075 d4be
00000280: 84d1 d9bf 40ad 9abe 8a59 9e3e e14c cdbe
00000290: 9a32 583e 7ba8 643e d2bc f7bc 1c82 2dbf
000002a0: 9150 a13e 9ec8 e73e 0f99 7abe d506 32bd
000002b0: 1a37 30bd 6770 17be c995 47be c071 a7be
000002c0: 41fc e4be 50cd a13d 1c1e 033e 9d6d 96be
000002d0: 8cc6 253f 49c0 bdbe af89 ffbc 64b8 853f
000002e0: 60f2 9e3d fc75 20bd 27b8 623e 694f 89bd
000002f0: 83ea 043f 6e12 42be fc21 debd e992 123f
00000300: 40ce 88bf ce47 38be 5e9b 9dbd 6719 a9be
00000310: b700 50be 61da 11be 3fd1 013e b373 263e
00000320: af32 b73e 0d51 df3e c72b 9b3e b570 ab3e
00000330: 535e 973e 0812 a03d 8360 3e3e 5fd9 d03e
00000340: 06c1 9cbe 3333 debe eaad 9bbe 5911 59be
00000350: 85fc 68be 903f a9bd 88b4 29be 3015 e0be
00000360: fb3d c13e 3eec a23e a948 aabe a87e 883d
00000370: 10e7 c5bc 5a60 72be f1c3 253e ed61 d2be
00000380: f388 de3e 8858 c53e 14ed 943e 3d70 563e
00000390: 06f8 5d3e 2bc9 023e eb68 0b3e 05fb 3a3e
000003a0: e620 523e ad8e 34bc 72b8 5f3e c052 513e
000003b0: 11a8 363e beef 3a3e 36bf c4bd 020d a9be
000003c0: 96e7 62bf 5676 f4bd 3977 e2bd 4c2a b0be
000003d0: 3a17 91be 00b8 7ebe 45eb 213d a76c c93e
000003e0: 9098 25bf 58e6 42bf 3269 b2be 839c ca3d
000003f0: 7da4 8b3d 9c7f 9f3f 3489 57bc a3d8 98bb
-0.41874647 -0.35889503 -0.23225649 -0.17523481 -0.19426104 0.055513278 -0.062392272 -0.60874516
-0.4439078 -0.4277929 -0.28403533 -0.1633892 -0.10998344 -0.15323153 -0.13993725 -0.39758042
-0.011576784 -0.1241989 -0.085127175 -0.070835926 -0.039119672 -0.02151909 0.015586345 -0.025967548
-0.015066598 -0.14982246 -0.10416014 -0.076462895 -0.03878877 -0.011272132 0.031536583 0.012198575
-0.24029447 -0.44237462 -0.21976389 -0.13840683 -0.1796597 0.13057518 -0.19850557 -0.96172667
-0.54335696 -0.38731167 -0.20882024 -0.19734196 -0.07640811 -0.0741013 -0.13643779 -0.276154
-0.0056474903 -0.027651113 -0.024897551 -0.022611072 -0.021641392 -0.021444602 -0.020128567 -0.013038453
-0.28290442 0.28293997 -0.01404105 0.2196584 -0.23849002 -0.3938548 0.20840372 0.2646578
0.08362889 0.08936947 -0.08575043 -0.029195273 -0.22398426 -0.22239478 -0.27501765 -0.4853398
-0.5636302 -0.39351845 -0.33734196 -0.13845475 -0.03521755 -0.15130892 -0.2633087 -0.5374199
-0.25707284 -0.32883754 -0.22117795 -0.01225827 -0.19619913 -0.09987673 -0.21733332 -0.57192826
-0.5370428 -0.33264357 -0.23271589 -0.15448172 -0.12697086 -0.023034807 -0.13894853 -0.33257172
-0.32387894 -0.28720883 -0.10469279 0.041373536 0.12500313 -0.21689998 0.005780456 0.2546455
1.6556821 0.5812367 -0.54803663 0.12918629 -0.015010187 -0.11728412 -0.09656923 -0.14359504
-0.36782172 -0.45318207 -0.10373554 0.05361291 -0.43288586 -0.07155938 -0.14097579 -0.41066018
0.19808039 -0.070885174 0.102737196 0.11919437 0.31048715 0.30593723 0.054878976 -0.5846732
-0.36570916 -0.42530084 -0.34297657 -0.28146088 -0.2665296 -0.1720755 -0.17853856 -0.35312995
0.6112962 0.30585247 0.2715443 0.29380625 -0.38450888 -0.07287466 -0.26384872 0.25089446
-0.09781279 0.085775904 0.0064809886 -0.044259354 -0.09601854 -0.15147233 -0.21330102 -0.2574629
-0.288432 0.5442746 -0.16046903 -0.15099107 0.036348686 -0.19113106 -0.1514462 -0.41496134
-1.7017064 -0.30210304 0.30927688 -0.40097716 0.21113053 0.22329895 -0.030241404 -0.67776656
0.3150678 0.45270246 -0.2447245 -0.043463547 -0.0430213 -0.14788972 -0.19490732 -0.32703972
-0.44723704 0.079004884 0.12804455 -0.29380503 0.64756083 -0.37060764 -0.031193582 1.0446897
0.07761073 -0.03917502 0.22140561 -0.067045994 0.51920336 -0.18952343 -0.10846326 0.5725542
-1.0687943 -0.17996141 -0.076956496 -0.33027193 -0.20312773 -0.14243461 0.12677477 0.16255073
0.35780856 0.43616524 0.30306837 0.33484426 0.2956415 0.07815939 0.18591504 0.4079084
-0.30616015 -0.43398437 -0.30406123 -0.21198024 -0.22752579 -0.08264077 -0.16572773 -0.43766165
0.377426 0.31820863 -0.3325856 0.06664783 -0.02415803 -0.23669568 0.16188027 -0.41090336
0.4346386 0.38544106 0.29087126 0.20941253 0.21676645 0.12772052 0.13614242 0.18259819
0.20520362 -0.011020345 0.21847704 0.20441723 0.1783755 0.18255517 -0.09606783 -0.33017737
-0.8863462 -0.11936633 -0.11057896 -0.3440727 -0.28338033 -0.24874878 0.03953101 0.39340708
-0.64685917 -0.76132727 -0.34845883 0.098931335 0.06818483 1.2460818 -0.01315527 -0.004664497

target_representation.model.0.spline_scaler f4 [64, 1]
00000000: 0074 24bf e2d4 d1be 8659 473e 95fb 4e3e
00000010: 9b99 a3bf f0f7 91bf 482a 3f3f 04b5 b9bf
00000020: 4cb2 2fbf 1612 34bf c316 f7be 274a 33bf
00000030: cfe9 67bf 455b bfbf 55cc 62bf 79e3 973f
00000040: 0889 9dbe 4dc1 7d3f 2574 23bf c558 21bf
00000050: e543 a23f 6e35 06bf c081 fabf 2bbf 80bf
00000060: 9fc6 03bf dd85 c43e c360 7bbe c44b 6abf
00000070: 3036 3f3f 3f64 583f 9b85 f3be 49ef abbf
00000080: 2845 4dbf d37a 77bf b470 db3f a1f5 353f
00000090: a95c 803f 064c 183f 9171 20bf 17ad 45bf
000000a0: 06fb c03e 333d aebf 04af 21bf a828 00bf
000000b0: 9260 7e3f 07e5 853f b866 843f d176 003f
000000c0: bcdb 8a3f 520d 8b3f f134 61bf 333b 7abf
000000d0: fb90 8fbf f404 0bc0 a645 0a3f d981 da3e
000000e0: fe3f 30bf c32d 4a3f b62b 36bf f4ab 913c
000000f0: 6994 03bf 7a54 bd3e 7837 29bf ea15 79b6
-0.642395 -0.4098273 0.19467744 0.20213158 -1.2781252 -1.140379 0.7467389 -1.4508367
-0.68631434 -0.70340097 -0.48259553 -0.7003502 -0.9059114 -1.4949728 -0.88593036 1.1866294
-0.3076861 0.9912308 -0.638491 -0.63026077 1.267697 -0.5242528 -1.9570847 -1.005834
-0.51474947 0.3838338 -0.2454863 -0.9152186 0.7469206 0.84527963 -0.4756287 -1.3432399
-0.8018365 -0.9667179 1.7143769 0.71077925 1.0028278 0.59491 -0.6267329 -0.7721724
0.37691516 -1.3612427 -0.6315768 -0.50062037 0.99366105 1.0460519 1.0343847 0.501813
1.0848308 1.086344 -0.8797141 -0.9774658 -1.121612 -2.1721773 0.54012525 0.4267719
-0.68847644 0.78976077 -0.7116045 0.017782189 -0.5139833 0.36978513 -0.66100264 -3.7116647e-06

target_representation.model.0.grid f4 [1, 12]
00000000: 9a99 19bf cdcc ccbe cdcc 4cbe 0000 0000
00000010: cdcc 4c3e cdcc cc3e 9a99 193f cdcc 4c3f
00000020: 0000 803f 9a99 993f 3333 b33f cdcc cc3f
-0.6 -0.4 -0.2 0.0 0.2 0.4 0.6 0.8
1.0 1.2 1.4 1.6

eval_Qhead.model.0.base_weight f4 [64, 64]
00000000: 44a7 b53d 4aab 1e3e fa8c 62bc 7acd de3d
00000010: 885c 253d f44d 4a3d cd17 45bc 8b97 0dbe
00000020: e96e d6bb d68c 2c3c 21ee bfbd 6cb1 06bc
00000030: 42c1 8a3d 487c ac3e 84d9 b13d 176b 123d
00000040: bd24 8a3c a4ec d5bd 7987 133d 07d7 15bc
00000050: e099 9e3d c8b3 aebe 2c0d 173e f63e 1ebd
00000060: 4582 963e 2c06 96bd ca24 ec3d a8ae bebe
00000070: 5444 053d 88f6 ddbd 4cb6 6cbd 12df ce3c
00000080: 6055 cf3c 855e 3c3d 24d8 0c3d 1463 673d
00000090: a158 9d3d 0a34 333e 33bc 053e 9258 97bd
000000a0: d9b4 a13d 3e63 f9bc e234 233c 29f2 383e
000000b0: dfb7 43bc 179c 67bd 84bf 813d d14f 01bd
000000c0: 554d f3bd 788f 183d 5618 583c 2a6a 2cbb
000000d0: 645b cb3d e9ae 6c3c e44b aebc c233 013d
000000e0: c108 5dbc d167 8bbd 2cfb c0bc 6ae1 b6bd
000000f0: 339a 8cbd 5ad4 173e bf30 0a3c 449f 19bc
00000100: a7fd d3bb 8ce1 6cbd f708 0f3d dd0b bb3c
00000110: 050a c8bc 9281 3bbd d377 f5bd f0ac d0bd
00000120: fd17 76bd 6b6c bb3c 97db 1e3d 2b77 5f3c
00000130: 255e 623d ae39 16be da9f 2bbe 421e 00be
00000140: 0994 8b3d f34f 793e 2f4f 783d 5620 b93c
00000150: 52b4 cfbe cffb 2abe 9f73 5f3e 4e17 0ebe
00000160: a3a4 983d dc8d e5bd d309 95bd 12e4 d63d
00000170: 891a 17bd d2aa 7f3d a2a3 b33d b9a6 ae3d
00000180: f0dc 70bd 0f05 8d3c 29c8 10be 45e6 8f3d
00000190: 2817 df3d a265 c8bd 305c b8bc 3355 b1bc
000001a0: 9293 0abe 5bd9 8abe 3992 9cbc cc32 013e
000001b0: 8f96 d4bd 1665 803d 3e1e b0bd 99ed 45bd
000001c0: 1b87 563c 0305 b1bd 35e8 023d 50cb 873c
000001d0: 47d9 5c3e d7cd 80be 6ed9 17be 575f 083d
000001e0: b38a 07be 7938 f53c d63b e2bd 47b0 c7bc
000001f0: 70de 67bd d854 c13d 3a3f 0bbd 2815 c1bd
00000200: 254b 3d3e 6213 0a3e c945 7abc 0ede 283d
00000210: fd8b b93d 707f 903d a9f5 10bd eff8 23bf
00000220: 8bb0 803d e98b e9bc 30e9 9a3d 04f9 fdbc
00000230: 92f9 dfbd ae23 18be d3ef 363e 4d9e 9e3c
00000240: f160 1a3c bf35 12be 6724 773c 906d 9cbe
00000250: f919 fc3c 0359 febe 7362 5e3e c90f 3b3d
00000260: 3f38 a2be 43b6 9fbc 57d3 043d 873b a4be
00000270: 7449 f63c c799 efbd c3e4 17bf 3b51 ccbd
00000280: 74a2 b43d aa27 5cbd 07c2 813d 6ee1 d1bd
00000290: 1914 e1bd 3bc0 973b e249 a4bd 463a c53e
000002a0: ca08 e53d 7144 443d 25fc 5c3d f6b2 c4be
000002b0: e9f7 1fbd 70df eb3d f742 c93c 4aa4 6cbc
000002c0: 96d1 64bd edac 32bd 4f77 a9bb 0ad4 163c
000002d0: 3900 4dbd 296c 713e 17e4 3d3e fec2 77bc
000002e0: 439b 423d 11f7 2e3e 0e07 133d 8f28 443c
000002f0: 4359 8f3d 7dc7 d4be a686 173e 716b dfbd
00000300: 701b d7bb 3a32 773a 6b67 efbc 8faa be3d
00000310: 91bd c2bd 9d97 fbbb 727f 483d 3f5f 0fbf
00000320: 8a19 68bd adbb 8b39 e298 e8bd 4540 c5bd
00000330: 576b 9d3d f8b8 b13e af98 d6bd ba8b 8fbd
00000340: 1057 123d 2c51 e93d eea4 773d 9ea1 c8bc
00000350: 1d1f 9a3e a734 86bc 0318 8cbe f537 f6be
00000360: 22b4 c13f c590 54bd 9cd7 e7bd 52f0 b83d
00000370: bd85 88bc 3a6e bcbc 75d6 703f 509b b7bd
00000380: 7ce4 93bc 7bbd 89bd ea2e 1abc 86c7 913c
00000390: 2d3f d03d 4988 ee3d cbe2 0dbe 6d8f 463f
000003a0: f441 3d3a f53a c9bd 4567 4d3d 79de 8a3f
000003b0: 0f8e 5cbc 0ffe 5c3c dac0 c2bd fc3d 78bc
000003c0: cb40 fb3d 7efe 7d3b a2c7 843d 367d b0bd
000003d0: d8e6 f7bd 01f6 a83e 3a0c 8c3d 5e85 8b3d
000003e0: fc3a a93f b729 4e3c 8e71 82bd 4b46 0abe
000003f0: d736 f7bc 4ea4 d23f 4f70 93bb ddca 733c
0.08869794 0.15495029 -0.013827557 0.10879035 0.040371448 0.04939075 -0.0120296 -0.1382734
-0.0065439832 0.010531625 -0.09371591 -0.008221012 0.06775142 0.3368857 0.08684066 0.03574666
0.016863221 -0.10445526 0.03601787 -0.009145505 0.07744193 -0.34121537 0.14751118 -0.038634263
0.29396263 -0.07325396 0.115304545 -0.37242627 0.032535866 -0.10838038 -0.05779104 0.025252853
0.025309265 0.04598858 0.034385815 0.056490973 0.0768292 0.1750032 0.13060074 -0.0738994
0.07895822 -0.03044283 0.009961339 0.18061127 -0.011945694 -0.056545343 0.06335357 -0.03157026
-0.11879984 0.037246197 0.013189396 -0.0026308396 0.09929541 0.014445999 -0.021276422 0.0315435
-0.013490857 -0.06806911 -0.023557268 -0.08929713 -0.06865349 0.148271 0.008434474 -0.009376351
-0.0064694467 -0.057832286 0.03492066 0.022832805 -0.02441884 -0.045777865 -0.11985745 -0.10189235
-0.06008147 0.022878846 0.038783636 0.013639252 0.055265564 -0.1467044 -0.16760197 -0.12511542
0.06815345 0.24346904 0.06062239 0.022598427 -0.4056726 -0.1669762 0.2182145 -0.13876078
0.07453277 -0.11208698 -0.072772644 0.1049272 -0.03689054 0.062418766 0.08771445 0.085278936
-0.058804452 0.017214326 -0.14138855 0.07026342 0.108930886 -0.0978501 -0.022504896 -0.021647071
-0.13532856 -0.27118954 -0.019112693 0.12617034 -0.10380279 0.062692806 -0.08599518 -0.048322294
0.013093735 -0.08643534 0.03195973 0.01657644 0.2156726 -0.25157043 -0.14829037 0.03329405
-0.13236503 0.029934155 -0.11046569 -0.024376048 -0.056608617 0.09440011 -0.033995844 -0.09427863
0.18485697 0.13483956 -0.015275427 0.041227393 0.09059904 0.07055557 -0.03539053 -0.6405172
0.06283673 -0.028509097 0.07564008 -0.031002529 -0.10936274 -0.1485736 0.17864923 0.019362593
0.009422527 -0.14278315 0.015084363 -0.3055234 0.030774103 -0.49677286 0.21717243 0.04566935
-0.31683537 -0.019496089 0.032428112 -0.32076666 0.030064322 -0.116992526 -0.5933344 -0.09976431
0.08820048 -0.053748764 0.06335836 -0.102480754 -0.109901614 0.00463107 -0.080219045 0.38521022
0.11183317 0.047916833 0.0539514 -0.38417786 -0.039054785 0.11517227 0.024568064 -0.014443466
-0.05586394 -0.043621946 -0.0051716934 0.0092058275 -0.05004904 0.23576416 0.1854404 -0.015122173
0.04751135 0.17086436 0.0358954 0.011972561 0.06999447 -0.41558447 0.14797458 -0.10909165
-0.00656455 0.00094297866 -0.029224118 0.09309875 -0.09508813 -0.007677986 0.048949666 -0.5600471
-0.05666498 0.00026651975 -0.11357285 -0.09631399 0.07686489 0.34711432 -0.10478341 -0.070090726
0.03572756 0.113924354 0.060460024 -0.024491128 0.30101863 -0.016382528 -0.2736207 -0.48089567
1.5133097 -0.051895875 -0.11320421 0.090302125 -0.016665334 -0.023001779 0.94077235 -0.089651704
-0.018053286 -0.06725594 -0.009410599 0.017795336 0.101683 0.11647088 -0.13856046 0.775626
0.00072196056 -0.09825698 0.050147314 1.0849143 -0.013461604 0.013488307 -0.0950944 -0.015151497
0.12268218 0.0038756425 0.064833894 -0.08617632 -0.12104577 0.33000186 0.068382695 0.06812547
1.3221126 0.012583188 -0.06369315 -0.13503377 -0.030177517 1.6456392 -0.004499472 0.014879909

eval_Qhead.model.0.spline_weight f4 [64, 64, 8]
00000000: ca0f 603b 3ca9 3bbd 88ae b4bd 1b33 5abd
00000010: aa57 db3c 5d89 d03c a3e2 a8bc c9c1 46bb
00000020: de7e c5bb 854b 813b d94f 1a3d dee0 23bc
00000030: aed8 253c 1cc8 a0bc 2269 cb3b b855 5cba
00000040: ee83 f1bc e64b 98bc 0214 71bd 5377 b33c
00000050: 74f8 68bc 80a5 ef3b f4c4 c13b b255 2a3a
00000060: 9e6d 54bc 933b 623a 8c46 04bd a6dd f73b
00000070: c3f5 a73b 955a 76bc 069f 5bbb c8dc 6239
00000080: c7cd b43b ccdc 7d3c 874b dfbc d504 603c
00000090: 5080 283a e6f5 c9bb ffeb 563c a589 763b
000000a0: 2def 6bbc 284c bf3c 67e0 a1bc 6e05 5d3b
000000b0: d653 af3c 4970 2e3c af70 293c 1a8e e03a
000000c0: 09ef 403b 0bf9 d2ba 9148 5a3b 6860 24ba
000000d0: ded9 483c 9a05 37bc 225a 01bb 7e57 073a
000000e0: aa49 3ebd 53e9 82bc 5d0a 083d bb9e b1bb
000000f0: 58ac 55bc e83c 323c 278d f4b9 06f5 91ba
00000100: 3eef 6a3b 9a91 253a 94e2 3cbc 40a9 663c
00000110: a463 4a3c 12c0 40bc 220d aa3b 8424 1c3b
00000120: 486d 47bb 8a45 84bc 7a97 d63b b492 533a
00000130: d455 b03b 8e2e 9d3b cf8a 0ebc f1a5 283c
00000140: 8d6c d43b bd00 3f3d cfe5 ca3d 4d6c a93c
00000150: 34d0 e13d 6706 613c 68cd 0b3d 6372 e9bd
00000160: 3af7 1bbb de6a 21bc e410 133b f2a0 baba
00000170: 38a0 c73a 7988 433c 033c d7bb 92c5 27bb
00000180: 93f7 7bbc 3557 86bd 59bb 2abd 92c1 52bd
00000190: 5b33 733c 295a 453d 208b 44bc b810 2abb
000001a0: 0c40 2dbb 88f1 543a bca3 d63c f646 88bc
000001b0: 36b8 f539 8e73 483c c074 cabb e9ee 1fbb
000001c0: 83bb a6ba 99c7 1d3d 4784 c13d 3708 3a3d
000001d0: 7ac4 9c3d e499 cd3d 771d d53b e5ed 00be
000001e0: 054b f03c 9b1e 9abc f987 293c acaf 59bb
000001f0: db98 983c 525f 75bc 70c5 96bb 361f 6239
00000200: 32c5 b3ba bef2 243b 8913 abba 5943 08bb
00000210: 3447 283b 86bc 0ebc 11d7 00bc 0d9d b1ba
00000220: 7aa9 6abc 0fda 523d d628 ff3c 83fc 293d
00000230: 6bcc 213c 74d3 483c 475d 2ebc cf73 73bb
00000240: 699d f1bb b766 c33a 23cf 883c cda7 ab3b
00000250: 64ac 30bc acc0 7b3b 08b1 473b 6e99 a939
00000260: dd8a c4bb b5b4 0cbc ec49 da3a 602c 683c
00000270: 91d6 cebb 25b6 e3bb 77da 513c b17b 753b
00000280: 1a0c 533c c8db cd3b d5dd c3ba 484e c1bb
00000290: 3a24 d63b 019d 31bc 6b34 07bc cf86 a2ba
000002a0: bb0c b63c f611 263d 07e4 a33c daff eb3a
000002b0: 4300 3cbc db75 a0bb acb8 4d3c 7188 643b
000002c0: 7a3e c6bb 42b4 183c 735d eebb 8712 1c3c
000002d0: 953e 3ebc e2bc 91ba 584e 113a fe43 75b8
000002e0: 191c 8bbc 1a98 a33b 3e2c 12bc 4e78 043c
000002f0: 80be 9cbc c476 243c 3c13 243a da75 80ba
00000300: a4c7 f2bc 4e58 9e3a 392b 9abb d874 b4bb
00000310: 7499 f13b a68c 363c c64d 73bc 0d39 97bb
00000320: 1794 8dbc 9cc3 adbd d76e 9fbd 3cf5 5bbc
00000330: 430c f03c 9206 2ebc 81ba ef3b 156e ac3a
00000340: 00a4 80bb fd32 9cbc 52c8 d9ba 5f5d 483c
00000350: 28ab 0cbc db87 013c 038f 86bb fd0b 1bbb
00000360: 7552 6fbb e241 de3b efbf 78bc 353d 67bb
00000370: bd38 31bc 6315 4b3c d840 3dbc e089 89bb
00000380: 6b9b 6cbc a588 d6bd 0092 dabd 6b42 edbb
00000390: 5123 003d f754 643c 0e23 30bc 0c87 90bb
000003a0: 96aa 3abd 3216 5bba 793a 9dbc 3620 6b3c
000003b0: b195 35bc 2e00 15bc 9c29 2d3b 39a3 8a3a
000003c0: 08b8 953a af4b 70bb 4bb0 b43b 3bb4 823b
000003d0: d5e3 e0bb eb5f 893a 068b 943b 7dc2 813a
000003e0: 2d3c 803d b659 09bd 7254 083d a822 d63c
000003f0: 327e 403d 274d d73b 4911 0a3b 1374 083a
0.0034189099 -0.04581569 -0.08822352 -0.053271394 0.0267752 0.025456125 -0.020615881 -0.0030327907
-0.0060270866 0.00394577 0.037673805 -0.010002343 0.010122461 -0.01962667 0.006207601 -0.0008405107
-0.029481854 -0.018590879 -0.05885697 0.021907484 -0.014219392 0.0073134303 0.005913371 0.0006497755
-0.012965588 0.0008630093 -0.03229384 0.0075642643 0.0051257326 -0.015036245 -0.0033511533 0.00021635287
0.0055176946 0.015494537 -0.027257694 0.013673027 0.00064278115 -0.0061633466 0.013117789 0.0037618664
-0.014400286 0.023351744 -0.019760324 0.003372516 0.02140228 0.010646888 0.010341807 0.0017132193
0.002943935 -0.0016095949 0.0033307413 -0.0006270469 0.012258975 -0.011170769 -0.0019737561 0.00051628787
-0.04645697 -0.015980398 0.03321301 -0.0054205335 -0.013041578 0.010878779 -0.00046644473 -0.0011135645
0.0035848166 0.0006315947 -0.01152863 0.014078438 0.012352858 -0.011764543 0.005189554 0.0023825476
-0.0030430127 -0.01614644 0.006548819 0.00080708717 0.0053813253 0.0047968095 -0.008700087 0.01029347
0.006482667 0.046631563 0.09907114 0.020681525 0.1102604 0.013734437 0.034131438 -0.11398771
-0.0023798482 -0.009852139 0.0022440488 -0.0014238639 0.0015230244 0.011934393 -0.0065684333 -0.0025599939
-0.0153788505 -0.06559602 -0.041682575 -0.051454134 0.014843787 0.048181687 -0.011996061 -0.0025949907
-0.002643588 0.0008123149 0.026201122 -0.0166354 0.0004686729 0.012234582 -0.0061784685 -0.0024403876
-0.0012720678 0.03852043 0.09449058 0.04541799 0.076546624 0.10039118 0.0065037566 -0.1259075
0.029332647 -0.018813422 0.01034736 -0.003321628 0.018627575 -0.014976339 -0.004601173 0.00021564667
-0.0013715385 0.00251691 -0.0013052087 -0.0020792095 0.0025677206 -0.00871194 -0.007863776 -0.0013550833
-0.014322633 0.051477488 0.031147402 0.04150058 0.009875397 0.012257446 -0.010642356 -0.0037147885
-0.007373501 0.0014907931 0.016700333 0.0052385093 -0.010783289 0.0038414402 0.003047051 0.00032348506
-0.005997999 -0.008588006 0.001665411 0.014170736 -0.0063121994 -0.0069492036 0.012808434 0.003745776
0.012881303 0.0062823035 -0.001494343 -0.0058992244 0.0065350803 -0.010840655 -0.0082522435 -0.0012399795
0.022222867 0.040544473 0.020006193 0.0018005327 -0.011474672 -0.004896862 0.012556236 0.0034871364
-0.0060499283 0.009320321 -0.0072743236 0.009525902 -0.0116116 -0.0011118914 0.0005542985 -5.8475875e-05
-0.016981171 0.004992497 -0.008921681 0.0080853235 -0.019133806 0.010038082 0.00062589697 -0.0009800748
-0.029636212 0.001208076 -0.0047048596 -0.005507093 0.0073730294 0.011141932 -0.014850086 -0.0046149553
-0.017282529 -0.08484575 -0.07784813 -0.013425168 0.029302722 -0.010621684 0.007315934 0.0013155366
-0.0039258003 -0.019067282 -0.0016615486 0.012229293 -0.008585729 0.007905926 -0.004106404 -0.0023658269
-0.0036517654 0.006782756 -0.015182479 -0.0035284285 -0.01081675 0.012395236 -0.0115511045 -0.004197344
-0.014441351 -0.104752816 -0.106723785 -0.0072405837 0.03128368 0.013936273 -0.010750545 -0.00441063
-0.04557284 -0.00083574944 -0.019192921 0.014350941 -0.0110830525 -0.009094281 0.0026422506 0.0010577209
0.0011422643 -0.0036666205 0.00551418 0.0039887703 -0.006863097 0.0010480856 0.0045331744 0.0009899881
0.062614776 -0.03353282 0.03328366 0.026139572 0.04699535 0.0065704766 0.0021067432 0.00052052847

eval_Qhead.model.0.spline_scaler f4 [64, 64]
00000000: 58ad b8bc 4428 963b ca7a 17bd 8f5b 04bc
00000010: 7944 473b 0327 1d3c b0a4 1a37 e043 283d
00000020: 6de8 b4ba 624c efba 096e 3f3d 0d5b 8a39
00000030: ba46 febc 2d1b feba 0caa 7f3d bd5e bfbb
00000040: 01fb 073a 0f3b 01bc c26f 5b39 fbff 0fbc
00000050: 9f97 93bb 3ab7 623d 9607 cab9 7f65 96ba
00000060: 9ac4 b0bc d70d 66bc f1dd bfba 4dbf b3ba
00000070: 8924 1ebd 903c 12bd f02c ac3a c001 863d
00000080: 6934 e939 2dfa 523c 3416 b0b9 3898 b639
00000090: 0e73 773a 1f5f b03a aaf2 89b9 4489 cd37
000000a0: bcac 1b3a 37c6 1dbe e46b 32bc 4c2d 323d
000000b0: 3b8a e73c 2ed2 cdbc 9229 b63c 4a11 ddbc
000000c0: c57e ed38 7f2c 55bc cf5e ceb9 43a0 a33a
000000d0: 9bdf a2bb 8c4c 0d3e 5208 3039 d57a 203d
000000e0: d9d0 8ebc 99da a2bb 1bbe d93a acc5 d138
000000f0: 93c9 3f3d c634 c3ba e16d 29bd 606c 283b
00000100: e738 9d3a c7e9 963b e81c 0e36 0222 ff34
00000110: 4766 b63b 9095 fdb9 de74 8c35 f55b 02ba
00000120: d90c 79ba 3884 efbb cd7f 21bc f836 a8ba
00000130: 2e05 e03a 7c96 8c3a a153 a43e ba54 2b39
00000140: f854 baba 22be f0bd 81c1 7eb9 0e86 0c38
00000150: 7ed4 9e3e 1b58 cc3a 000d 90be 467e 1f38
00000160: f20a 4db8 2d3c 31bb 1578 943a 6162 2fb9
00000170: a0af 3e3b fcaa 063a 1c49 81b9 dc4b 84bc
00000180: b6c7 9d37 ac9f adb7 b2b6 c2ba a656 f6b8
00000190: 3e50 7637 4b1a 6d3a 5236 2eb9 0be7 9ab9
000001a0: 792b 4e3b 1278 e8be aa4b 7ab9 48ad b537
000001b0: 61b1 b3ba 47ba 3f3e cdd8 0cb9 495b 48bb
000001c0: a751 8439 2dc9 2eb7 465f 673d bf6d 9b39
000001d0: 4bb1 bebb cd88 b9bf b0e8 cb39 c2af dc39
000001e0: 9129 3fba 7df0 4eba 94a4 40bd 9a41 5f39
000001f0: d740 aaba ddef b436 7857 e6bd 26e6 d137
00000200: fddd bab9 36f9 673a 8219 423b 2751 24ba
00000210: e16b 98bb 6441 853a 681f b735 f8f5 063b
00000220: 4421 b039 dc56 363a 371d a03b a716 16b9
00000230: 255e bcba 0109 44bb e7a9 2d3b 87be f03a
00000240: 13f8 22ba d865 2d3a b270 ecb8 518e 46ba
00000250: 2fbb de3a 7470 4b3a 8a12 fc3b b809 9e3a
00000260: 46a2 8e38 a8d9 913a 0b14 84ba a3bf 2d3b
00000270: 5364 4abb 6b07 9139 1a6a de38 e882 01be
00000280: 087b 01ba 89af 483b 7215 5e3b 20f4 b637
00000290: 8d06 37b9 0913 3a3a efd2 6eba ec12 473a
000002a0: a46d ee39 12f9 233e 2e5c 70ba cabb 3cb9
000002b0: e1dc 073a 42a6 c53a f47d e03b 05b1 c638
000002c0: f241 d4ba 18ca 13bb 722a 15ba 369f 27ba
000002d0: f8bc d83a e53f 97bf e6f4 eab9 2cc8 a738
000002e0: e6d9 a3b9 1a2a d3ba 4568 57bd c599 703a
000002f0: c1ff 5039 8278 59b9 3bce 9b3b d9ef a138
00000300: ea02 d23a b206 89ba 8e66 7fbb dace 5c3a
00000310: baea 01ba 34a7 e638 5a22 9337 0178 1aba
00000320: b670 4839 0d59 953b a350 b23d e3b8 17b9
00000330: 909c e2bd 70bf 773e d2df 833a ab69 0cba
00000340: 1d73 ad38 8faa 1f3a 624c 05b9 4096 d939
00000350: d6d2 5abb 70bd 23ba 57f8 293f 0f58 b0b9
00000360: a6f0 5238 c30a 0e38 9ee8 08b8 ff8a d6b9
00000370: 601a 6a35 034c 5fb9 1209 69ba 8310 23bf
00000380: 482b ca38 a25a 44be 664e abba 8056 07ba
00000390: 1e09 85ba c4d2 a03a 3896 75b8 ed1c 263a
000003a0: d8da 8139 f9b1 363f 2fd0 1abd cfc8 5f39
000003b0: 6af3 c2b9 ee99 64be 47e2 93b9 11bf 54ba
000003c0: fd1e 0d3a db13 f5b9 9def cf39 8e7a 973a
000003d0: 1566 4bba c7a4 ed3f bd4e e4b9 6206 2cb9
000003e0: 7e0c 5bb9 6bf2 703a 980b fe3d ee7a b739
000003f0: 2464 e73a 9fc0 0c39 9fd3 0cbb bb33 eb39
-0.022543594 0.0045824368 -0.036982335 -0.00807847 0.0030405803 0.009591821 9.21746e-06 0.041080356
-0.0013802178 -0.0018257017 0.046735797 0.0002638925 -0.031039584 -0.0019386761 0.06241803 -0.005840151
0.0005187244 -0.007887616 0.000209271 -0.008789058 -0.0045041586 0.05535052 -0.00038534094 -0.001147434
-0.021578122 -0.014041386 -0.0014638287 -0.0013713628 -0.03860906 -0.03570229 0.0013135951 0.065433025
0.00044480272 0.012877029 -0.0003358588 0.00034827157 0.0009439447 0.0013456083 -0.00026311475 2.4501824e-05
0.000593852 -0.15407644 -0.010889981 0.04350023 0.028264156 -0.025124636 0.02223662 -0.026985783
0.00011324653 -0.013011097 -0.0003936202 0.0012483675 -0.0049705035 0.13798732 0.00016787768 0.03917964
-0.01743357 -0.0049699065 0.0016612442 0.00010002716 0.046823096 -0.0014893047 -0.041364554 0.0025699362
0.0011995108 0.004605505 2.1176475e-06 4.7522195e-07 0.0055663916 -0.00048367353 1.0464826e-06 -0.0004972809
-0.00095005106 -0.007309463 -0.00985713 -0.0012833765 0.0017091387 0.0010726 0.32095054 0.00016339394
-0.0014215996 -0.11755015 -0.00024295413 3.350345e-05 0.31021494 0.0015590222 -0.28134918 3.8026155e-05
-4.8886002e-05 -0.0027043924 0.0011327291 -0.0001672595 0.002909638 0.0005137173 -0.00024659268 -0.016149454
1.8808856e-05 -2.069756e-05 -0.0014855473 -0.000117463336 1.46814255e-05 0.00090447505 -0.00016614169 -0.0002954531
0.0031459017 -0.45404106 -0.00023870045 2.1657572e-05 -0.0013709479 0.18723403 -0.00013432205 -0.0030571988
0.00025237838 -1.0418048e-05 0.056487344 0.0002964567 -0.005819475 -1.4494873 0.00038892543 0.0004209262
-0.00072922657 -0.0007894112 -0.047031954 0.00021291376 -0.0012989294 5.392342e-06 -0.11247152 2.5021913e-05
-0.0003564208 0.0008849086 0.0029617255 -0.0006268196 -0.004651532 0.0010166583 1.3643703e-06 0.0020593386
0.0003359412 0.0006955692 0.004886295 -0.00014313553 -0.0014371319 -0.0029912593 0.0026498975 0.0018367328
-0.00062167755 0.0006614602 -0.00011274348 -0.00075743074 0.0016993041 0.0007760592 0.0076926397 0.001205734
6.8013134e-05 0.0011127489 -0.0010076774 0.002651193 -0.0030882552 0.00027662082 0.00010605548 -0.12647593
-0.00049392926 0.0030622205 0.0033887294 2.180977e-05 -0.0001745468 0.00070981734 -0.0009110411 0.0007594067
0.00045476586 0.16012982 -0.0009169009 -0.00017999034 0.0005182755 0.0015079456 0.0068509523 9.474348e-05
-0.001619397 -0.0022550877 -0.0005690224 -0.0006394269 0.0016535809 -1.1816374 -0.00044814422 8.0004655e-05
-0.0003125213 -0.001611057 -0.052589674 0.0009178187 0.00019931702 -0.00020739625 0.004754809 7.721753e-05
0.0016022597 -0.0010454266 -0.003897104 0.0008423157 -0.00049559365 0.00010998399 1.7539762e-05 -0.0005892516
0.00019115474 0.004557735 0.087067865 -0.00014469358 -0.11065018 0.24194121 0.001006121 -0.0005356322
8.270724e-05 0.0006090784 -0.00012712323 0.0004150141 -0.0033389828 -0.0006246185 0.6639456 -0.00033634945
5.0292023e-05 3.386546e-05 -3.264157e-05 -0.0004092082 8.7210174e-07 -0.00021295254 -0.0008889596 -0.6369707
9.640172e-05 -0.19175199 -0.0013069629 -0.0005162731 -0.0010149812 0.0012269844 -5.8552454e-05 0.0006336708
0.0002476785 0.71365315 -0.037796196 0.00021341744 -0.0003718392 -0.22324345 -0.00028206615 -0.00081156293
0.0005383341 -0.00046744835 0.00039660643 0.001155691 -0.0007759047 1.8565911 -0.00043546213 -0.00016405576
-0.00020890121 0.00091913965 0.12404555 0.0003499607 0.0017653746 0.00013423197 -0.002148844 0.00044861235

eval_Qhead.model.0.grid f4 [64, 12]
00000000: 9a99 19bf cdcc ccbe cdcc 4cbe 0000 0000
00000010: cdcc 4c3e cdcc cc3e 9a99 193f cdcc 4c3f
00000020: 0000 803f 9a99 993f 3333 b33f cdcc cc3f
00000030: 9a99 19bf cdcc ccbe cdcc 4cbe 0000 0000
00000040: cdcc 4c3e cdcc cc3e 9a99 193f cdcc 4c3f
00000050: 0000 803f 9a99 993f 3333 b33f cdcc cc3f
00000060: 9a99 19bf cdcc ccbe cdcc 4cbe 0000 0000
00000070: cdcc 4c3e cdcc cc3e 9a99 193f cdcc 4c3f
00000080: 0000 803f 9a99 993f 3333 b33f cdcc cc3f
00000090: 9a99 19bf cdcc ccbe cdcc 4cbe 0000 0000
000000a0: cdcc 4c3e cdcc cc3e 9a99 193f cdcc 4c3f
000000b0: 0000 803f 9a99 993f 3333 b33f cdcc cc3f
000000c0: 9a99 19bf cdcc ccbe cdcc 4cbe 0000 0000
000000d0: cdcc 4c3e cdcc cc3e 9a99 193f cdcc 4c3f
000000e0: 0000 803f 9a99 993f 3333 b33f cdcc cc3f
000000f0: 9a99 19bf cdcc ccbe cdcc 4cbe 0000 0000
00000100: cdcc 4c3e cdcc cc3e 9a99 193f cdcc 4c3f
00000110: 0000 803f 9a99 993f 3333 b33f cdcc cc3f
00000120: 9a99 19bf cdcc ccbe cdcc 4cbe 0000 0000
00000130: cdcc 4c3e cdcc cc3e 9a99 193f cdcc 4c3f
00000140: 0000 803f 9a99 993f 3333 b33f cdcc cc3f
00000150: 9a99 19bf cdcc ccbe cdcc 4cbe 0000 0000
00000160: cdcc 4c3e cdcc cc3e 9a99 193f cdcc 4c3f
00000170: 0000 803f 9a99 993f 3333 b33f cdcc cc3f
00000180: 9a99 19bf cdcc ccbe cdcc 4cbe 0000 0000
00000190: cdcc 4c3e cdcc cc3e 9a99 193f cdcc 4c3f
000001a0: 0000 803f 9a99 993f 3333 b33f cdcc cc3f
000001b0: 9a99 19bf cdcc ccbe cdcc 4cbe 0000 0000
000001c0: cdcc 4c3e cdcc cc3e 9a99 193f cdcc 4c3f
000001d0: 0000 803f 9a99 993f 3333 b33f cdcc cc3f
000001e0: 9a99 19bf cdcc ccbe cdcc 4cbe 0000 0000
000001f0: cdcc 4c3e cdcc cc3e 9a99 193f cdcc 4c3f
00000200: 0000 803f 9a99 993f 3333 b33f cdcc cc3f
00000210: 9a99 19bf cdcc ccbe cdcc 4cbe 0000 0000
00000220: cdcc 4c3e cdcc cc3e 9a99 193f cdcc 4c3f
00000230: 0000 803f 9a99 993f 3333 b33f cdcc cc3f
00000240: 9a99 19bf cdcc ccbe cdcc 4cbe 0000 0000
00000250: cdcc 4c3e cdcc cc3e 9a99 193f cdcc 4c3f
00000260: 0000 803f 9a99 993f 3333 b33f cdcc cc3f
00000270: 9a99 19bf cdcc ccbe cdcc 4cbe 0000 0000
00000280: cdcc 4c3e cdcc cc3e 9a99 193f cdcc 4c3f
00000290: 0000 803f 9a99 993f 3333 b33f cdcc cc3f
000002a0: 9a99 19bf cdcc ccbe cdcc 4cbe 0000 0000
000002b0: cdcc 4c3e cdcc cc3e 9a99 193f cdcc 4c3f
000002c0: 0000 803f 9a99 993f 3333 b33f cdcc cc3f
000002d0: 9a99 19bf cdcc ccbe cdcc 4cbe 0000 0000
000002e0: cdcc 4c3e cdcc cc3e 9a99 193f cdcc 4c3f
000002f0: 0000 803f 9a99 993f 3333 b33f cdcc cc3f
00000300: 9a99 19bf cdcc ccbe cdcc 4cbe 0000 0000
00000310: cdcc 4c3e cdcc cc3e 9a99 193f cdcc 4c3f
00000320: 0000 803f 9a99 993f 3333 b33f cdcc cc3f
00000330: 9a99 19bf cdcc ccbe cdcc 4cbe 0000 0000
00000340: cdcc 4c3e cdcc cc3e 9a99 193f cdcc 4c3f
00000350: 0000 803f 9a99 993f 3333 b33f cdcc cc3f
00000360: 9a99 19bf cdcc ccbe cdcc 4cbe 0000 0000
00000370: cdcc 4c3e cdcc cc3e 9a99 193f cdcc 4c3f
00000380: 0000 803f 9a99 993f 3333 b33f cdcc cc3f
00000390: 9a99 19bf cdcc ccbe cdcc 4cbe 0000 0000
000003a0: cdcc 4c3e cdcc cc3e 9a99 193f cdcc 4c3f
000003b0: 0000 803f 9a99 993f 3333 b33f cdcc cc3f
000003c0: 9a99 19bf cdcc ccbe cdcc 4cbe 0000 0000
000003d0: cdcc 4c3e cdcc cc3e 9a99 193f cdcc 4c3f
000003e0: 0000 803f 9a99 993f 3333 b33f cdcc cc3f
000003f0: 9a99 19bf cdcc ccbe cdcc 4cbe 0000 0000
-0.6 -0.4 -0.2 0.0 0.2 0.4 0.6 0.8
1.0 1.2 1.4 1.6 -0.6 -0.4 -0.2 0.0
0.2 0.4 0.6 0.8 1.0 1.2 1.4 1.6
-0.6 -0.4 -0.2 0.0 0.2 0.4 0.6 0.8
1.0 1.2 1.4 1.6 -0.6 -0.4 -0.2 0.0
0.2 0.4 0.6 0.8 1.0 1.2 1.4 1.6
-0.6 -0.4 -0.2 0.0 0.2 0.4 0.6 0.8
1.0 1.2 1.4 1.6 -0.6 -0.4 -0.2 0.0
0.2 0.4 0.6 0.8 1.0 1.2 1.4 1.6
-0.6 -0.4 -0.2 0.0 0.2 0.4 0.6 0.8
1.0 1.2 1.4 1.6 -0.6 -0.4 -0.2 0.0
0.2 0.4 0.6 0.8 1.0 1.2 1.4 1.6
-0.6 -0.4 -0.2 0.0 0.2 0.4 0.6 0.8
1.0 1.2 1.4 1.6 -0.6 -0.4 -0.2 0.0
0.2 0.4 0.6 0.8 1.0 1.2 1.4 1.6
-0.6 -0.4 -0.2 0.0 0.2 0.4 0.6 0.8
1.0 1.2 1.4 1.6 -0.6 -0.4 -0.2 0.0
0.2 0.4 0.6 0.8 1.0 1.2 1.4 1.6
-0.6 -0.4 -0.2 0.0 0.2 0.4 0.6 0.8
1.0 1.2 1.4 1.6 -0.6 -0.4 -0.2 0.0
0.2 0.4 0.6 0.8 1.0 1.2 1.4 1.6
-0.6 -0.4 -0.2 0.0 0.2 0.4 0.6 0.8
1.0 1.2 1.4 1.6 -0.6 -0.4 -0.2 0.0
0.2 0.4 0.6 0.8 1.0 1.2 1.4 1.6
-0.6 -0.4 -0.2 0.0 0.2 0.4 0.6 0.8
1.0 1.2 1.4 1.6 -0.6 -0.4 -0.2 0.0
0.2 0.4 0.6 0.8 1.0 1.2 1.4 1.6
-0.6 -0.4 -0.2 0.0 0.2 0.4 0.6 0.8
1.0 1.2 1.4 1.6 -0.6 -0.4 -0.2 0.0
0.2 0.4 0.6 0.8 1.0 1.2 1.4 1.6
-0.6 -0.4 -0.2 0.0 0.2 0.4 0.6 0.8
1.0 1.2 1.4 1.6 -0.6 -0.4 -0.2 0.0

eval_Qhead.model.1.base_weight f4 [6, 64]
00000000: f3d6 b23e 5507 0a3e d8a8 933e 2ead 9c3e
00000010: e4da 1b3e d7fa c0bd 16eb 903e c7aa 7a3e
00000020: fb09 b13e 94fb dd3e 1c96 b93e 54b4 c73e
00000030: 8d06 e33d 78ab d73e dfa7 f03e 32c8 bd3e
00000040: 9036 9f3e 3625 cf3e d61b d43e 280e ac3e
00000050: 0534 f03e 6286 be3e d3e9 923e d403 f93e
00000060: 4bf4 f13e ac2d d63e 614a 9c3c c3b5 623e
00000070: 2275 643e 571f cf3d 563b 163e 9323 423e
00000080: 6076 883e 3050 7b3e 29dd 493e 4fe8 203e
00000090: bca8 a53d 0cd9 e83e bbad d53e 9652 91be
000000a0: 347b 7a3e bedd 6c3e 47b6 ce3d b4a0 cb3e
000000b0: 3325 b73e 13a4 c03e 680a 963e fc83 e33e
000000c0: 8c0f b43e cd4a ce3e f368 713e 5542 ca3d
000000d0: 109e bf3e f23a c53d 91f3 da3e 6a4d e93e
000000e0: bc84 8c3e a5a1 f33e 8085 df3e 31dd 003f
000000f0: b6c5 ea3e 7e43 523d 755b d53e 3db4 073e
00000100: 6a38 4e3e 88f1 a73c c342 a43e aee2 803e
00000110: 6c78 063e a79a 5dbe d19d 2a3e 8b5a 953e
00000120: 75bc cb3e a0a4 5a3e 5f85 233e adf3 dd3e
00000130: e591 eb3d 0133 c33e 47f9 643e a32a ce3e
00000140: 37f2 863e 4798 0f3f 6c01 813e aab9 c23e
00000150: cbf9 cc3e 2797 9b3e 323f c23e 5b71 e93e
00000160: b353 ed3e 2707 833e a3cc 843e ca48 9b3e
00000170: 2e5e 503e 3321 f23d b979 463e 5278 c83e
00000180: 634a 723e f888 353e 0a53 273e 8d04 4d3e
00000190: e9f3 d33e bd08 cc3e 8265 8f3e b925 003f
000001a0: 4b4e 6e3e 8189 b33e 3304 4d3d d5c5 a33e
000001b0: 11b6 ea3e a322 a23e 0b55 3e3e 2983 613e
000001c0: 9650 ec3e 389e 673e 854e 573e c84d 573e
000001d0: 196e a13e 59bc 223e 3b77 903e ce89 e43e
000001e0: 7e6a e93e 5f79 b23e 7b95 923e ea6f e03e
000001f0: 7cab 8e3e ad7b ef3e e30f 953e 0310 353e
00000200: e677 983e 4e96 563e bc8d 983e 3384 673e
00000210: 24a3 7d3d c49f debd 8a26 873e 4d72 c53e
00000220: 29cf d63e 6a2f 9a3e 7e7e 043e 81dc d23e
00000230: 5cd0 263e bfe0 cd3e 2338 923e 2cfd c63e
00000240: ac15 953e 5dd6 393f fd13 af3e 1f7b d93e
00000250: 354a 8d3e 9b95 663e ed36 e13e e988 f33e
00000260: 968f ec3e 7547 783e 4596 c03e 8a5f a43e
00000270: b2bf be3e 87a1 5e3e 250c 2d3e 3a40 393e
00000280: 93c4 6a3e b4de 9e3e 35a8 1f3e 125f 043e
00000290: 294f 2a3e ed12 ef3e 214d b53e 8f7f 0b3f
000002a0: 683e 773e 829a 8a3e 45c9 e03d 0291 853e
000002b0: 3cc3 db3e a621 ca3e 5994 c53e ba8a 313e
000002c0: 3979 eb3e 4d98 5a3e a9a9 913e 02d9 433e
000002d0: 16f1 a53e f645 f03d 43ba 9e3e 9baf a13e
000002e0: f3f7 e13e 8734 5c3e 6a1f 07bd ba46 ec3e
000002f0: 9ea0 983e 0f83 7f3e 1e7f cb3e 32f8 ad3e
00000300: 912b c63e 8a09 103e 7e18 7c3e d363 7c3e
00000310: 50d9 f63d 5bf0 7dbe fa51 a93e 8d2d d53e
00000320: e5b7 ef3e 8986 a03e 92fd 413e 8ae2 d53e
00000330: f33d c73d adaf dc3e 9305 c53e e527 b13e
00000340: 6895 843e 3933 283f 24b6 7b3e 05ef 173e
00000350: 068e 4f3e 1b43 393e 16b3 ef3e 8b35 ce3e
00000360: 792c bb3e 3dc0 a83e 43f1 9bbd 4bb8 b53e
00000370: 73b2 5c3e 2fc0 553e 07b4 793e 33d8 933d
00000380: c593 d03e b536 963e ec58 3f3e 46fd 0e3e
00000390: a883 7a3d 1d9c db3e 1512 9f3e 5229 163f
000003a0: 00f8 923e 620b b43e 04e6 ed3d ba4b ca3e
000003b0: dfc5 a93e 1770 923e a46c 833e d821 a13e
000003c0: 1162 e43e 83f8 ab3e 4610 623e 5f8b eb3d
000003d0: ecae e83e bf3b 0e3e f47a f53e 270d dc3e
000003e0: f5a2 a33e 6b33 cd3e 1f21 763d b4c6 de3e
000003f0: 1adb b13e b929 c63e faba e63e 33ed 7e3e
0.34929618 0.1347936 0.28839755 0.30600876 0.15220219 -0.09422844 0.28304356 0.24479209
0.34577927 0.43356 0.36247337 0.39004767 0.11085234 0.42123008 0.47003075 0.370668
0.31096315 0.40458077 0.41427487 0.3360455 0.46914688 0.372119 0.2869402 0.48635733
0.47256693 0.4183172 0.019078435 0.22139649 0.22310308 0.101133995 0.14671072 0.18958883
0.26652813 0.24542308 0.19713272 0.15713619 0.08088824 0.45478094 0.41734108 -0.2838332
0.24461061 0.23131463 0.100933604 0.39771044 0.35770568 0.3762518 0.29304814 0.44436634
0.3516811 0.40291443 0.23575191 0.09875933 0.3742528 0.096303836 0.4276395 0.45566875
0.27445018 0.47584262 0.4365654 0.5033751 0.45853966 0.051333897 0.4167134 0.13252349
0.20138708 0.020500913 0.32082185 0.25172943 0.13131875 -0.21641026 0.16661765 0.2917064
0.3979222 0.21351862 0.15968846 0.43349972 0.115024365 0.3812485 0.22360717 0.40266904
0.2635667 0.5609173 0.25196397 0.38032275 0.40034327 0.30388758 0.3793884 0.45594296
0.4635292 0.25591394 0.25937375 0.3032897 0.20348427 0.118227385 0.19382371 0.39154297
0.23661189 0.1772803 0.1634027 0.20021267 0.41397026 0.39850417 0.28007132 0.5005756
0.23272054 0.35065845 0.050052833 0.3198687 0.4584203 0.3166705 0.18587129 0.2202269
0.46155232 0.2261895 0.21026047 0.21025765 0.3152931 0.15892161 0.28215966 0.44636387
0.4558906 0.34858224 0.2862967 0.43835384 0.27865207 0.46774045 0.29113683 0.17681889
0.29778975 0.20955774 0.29795635 0.22609024 0.06192316 -0.108703166 0.2639659 0.38563767
0.41954926 0.301143 0.12938878 0.41183856 0.1629042 0.4021053 0.28558454 0.3886503
0.29118097 0.7259272 0.34194937 0.42476746 0.27595678 0.22518007 0.43987218 0.47565392
0.46203297 0.24246009 0.37614647 0.3210414 0.37255627 0.21741305 0.16899164 0.18090907
0.2292655 0.31029284 0.1559151 0.12926891 0.1663176 0.46694127 0.35410407 0.54491514
0.241449 0.27071005 0.10975889 0.26087195 0.4292239 0.39478797 0.38589743 0.17338076
0.45990923 0.2134716 0.28449753 0.1912575 0.32410496 0.11732094 0.3100148 0.3157929
0.44134483 0.21504413 -0.032988943 0.4614771 0.2981004 0.24952339 0.3974542 0.3397842
0.38705114 0.14066139 0.24618718 0.24647455 0.12053168 -0.2479872 0.33070356 0.41636315
0.46819988 0.31352642 0.18944386 0.41774398 0.09728613 0.4310278 0.38480815 0.3460075
0.25895238 0.6570316 0.245812 0.14837272 0.20269021 0.18092005 0.4681632 0.40275225
0.36557367 0.32959166 -0.076143764 0.35492167 0.21552448 0.20874093 0.24385081 0.07218971
0.4073774 0.29338613 0.18686265 0.13963804 0.061160713 0.42892542 0.31068483 0.586568
0.28704834 0.35164934 0.116161376 0.395109 0.33158776 0.28601143 0.25668824 0.31471133
0.4460607 0.33588037 0.2207652 0.11501192 0.45445955 0.13889979 0.47945368 0.42978784
0.31960264 0.4007829 0.06009018 0.43510973 0.34737474 0.38703707 0.45064527 0.24895172
