experiment1/bestModels/(0.034, 'KAN 64x64, g=5, s=3.yaml')/best_performed_model.pth (torch, 384890 bytes, 24 tensors)

representation.model.0.base_weight f4 [64, 1]
00000000: fe48 75bd 27db 8d3f 8965 98be e7b4 813f
00000010: 4a71 243f 8619 6e3c 07bf b3bd efa9 123f
00000020: 091a 2fbd ebe0 24be 0a3b 173f eab9 56be
00000030: 6d7d cdbd 08f6 ea3e 37ff b2bd 9055 353f
00000040: 71ae 9bbe 73ca 14bf 5c27 8dbe 250e c23e
00000050: a20e d0bd 2686 8a3e d2d8 583f 4e20 dbbe
00000060: 42a4 7d3f 0cbc 02bc 529b 4a3f 4ea1 3f3f
00000070: 19db 413f d6eb 34be ad66 b6be 1359 7f3f
00000080: 16ee 8abd 8977 823f a8d3 1fbf 7506 19bf
00000090: ddde 7f3f b3c1 c5bd 8561 863d 6b2a 4dbf
000000a0: 08d7 c03e 5344 b53e f952 0d3f 0501 833f
000000b0: c586 97be 454a 853e 89d7 4e3e c37e 613f
000000c0: 9426 6fbe c074 48bd 4061 533f 9495 593f
000000d0: 7c11 623f 41bb 5a3e 6704 dc3e 9109 b2bd
000000e0: 109c e83d 8427 21bf 4ab0 303f 8732 bcbd
000000f0: 3639 b1be 74a8 3a3e 5fed a5be 28d0 86be
-0.059884064 1.1082505 -0.29764965 1.0133332 0.64235365 0.014532452 -0.0877667 0.5729055
-0.04274944 -0.16101424 0.5907446 -0.20969358 -0.10033689 0.45890832 -0.087400846 0.70833683
-0.30406526 -0.58121413 -0.2756909 0.37901416 -0.10159041 0.27055472 0.8470584 -0.42798084
0.9907876 -0.007979404 0.7914325 0.74855506 0.7572494 -0.1766809 -0.3562521 0.9974529
-0.067836925 1.0192729 -0.62432337 -0.5977548 0.9994944 -0.09656086 0.06561569 -0.8014285
0.37664056 0.3540369 0.5520473 1.0234686 -0.29595008 0.26033226 0.20199408 0.8808405
-0.2335456 -0.048939466 0.82570267 0.84993863 0.8830793 0.21360494 0.4297211 -0.08693231
0.113578916 -0.6295092 0.69018996 -0.09189325 -0.3461396 0.18228322 -0.32407662 -0.26330686

representation.model.0.spline_weight f4 [64, 1, 8]
00000000: 0d0d f1bd 5e5a 03bf ee2b a8be 1c39 3d3e
00000010: 74d2 15bd b05e 4bbd 866a 30bd c1be b6bd
00000020: 9e54 b2be f71d b53d ae7e 0d3c 67f1 f7be
00000030: 786a b0be 7f6d f8bc b3c2 c13d 077f 64be
00000040: b1ed 453f 3bbe 623e 6a28 ddbd fa93 913e
00000050: 348e a93e 3a2a 903e ea9a b33e e9f1 a33e
00000060: 9a50 61be 514e 01bf 85a1 cabe 4b95 86be
00000070: e3dd 6bbe fb1a 62be e136 51bd dd97 c6bc
00000080: 0b5a 783e 30aa f63e 1de6 e23e aff8 493e
00000090: e50e d93d 236a f93d 9d5a 4e3d db3a ab3d
000000a0: 36b7 55bf 298c fbbd ed12 07be d6bb ccbe
000000b0: 37b5 7e3e b038 10be add4 0b3e 8bfa aa3e
000000c0: e19f 253f 5c24 c43e 1417 64be e6be 65be
000000d0: c47f 123f c919 233d 83e3 b0be 99a1 fd3d
000000e0: c6b0 02bd 526b 8d38 9346 8dba dd2f 30bb
000000f0: 2378 643b 9ba9 babb c1de 493c 240d 83bd
00000100: ddc7 7d3c 9f3a 503c f81b e8bc 9c5d b9bd
00000110: 37d9 e2bd 8657 6fbe 4e39 33be 0d16 0dbe
00000120: a5f3 213f 3172 b93e 19da 50be d421 b53a
00000130: c695 ff3e 3f17 c2bb 08fe 57bd 0166 5f3e
00000140: fda0 d8be effb babe fd47 97be 35cc 92be
00000150: bc14 143d 1f27 3a3d 4a53 c53d 314b 5e3d
00000160: d1e0 4f3e 9207 d23e 055e 803e 8051 7fbd
00000170: 0269 a23d 263e cb3d af35 253e c15a e43d
00000180: d55b e93c 44b3 093f 4272 d33e a266 803e
00000190: 69df 393e 5ba0 153e 55e8 52ba 90db 973d
000001a0: b6f0 29be 2543 8bbe 3082 53be 9901 2dbc
000001b0: 1aa6 9b3d dcf8 563e de18 2f3e 6d49 f1bd
000001c0: 7d22 96be d2c7 8bbe 32bd 643e c499 b1bc
000001d0: 68c7 87bd ed5f d4bd 8a7e 39be ac3e c3bd
000001e0: 7d94 95be 350d b9be 9a9a 5abe a758 4abe
000001f0: 5ad7 27be 36d4 b13e a50e 723e c1fc a4be
00000200: 352b 70bf 7914 93be 0851 393e 3f33 24be
00000210: 578d ddbd db36 58be 56d5 85be 072c 45be
00000220: b7c4 b2be 33f0 23be 66b9 23be fceb 83be
00000230: 3516 2fbe f1a4 68be 96f4 c93c 190f 25bd
00000240: e9ba 01bf 3367 84be 6bb9 343e 5929 0bbe
00000250: 4fcf d5bd 76b2 4abe 7531 72be 07a1 a6be
00000260: 2119 5cbe 99a9 e2be 93f5 a4be 903d 6cbe
00000270: 072f c8bd e3de c5bc 3254 993d 88c8 163e
00000280: d744 afbe b9a7 0d3f f398 df3e 7697 703d
00000290: 5061 c0be be71 ac3e 55bd 8c3d 9bf6 07bf
000002a0: 2a6c 173e b531 d03e 95e1 8c3e 2275 233e
000002b0: dff7 9d3d 9db2 a03d a592 8bbd c4be 83be
000002c0: d2a7 16bf adce 86bb 496a 5a3e 1f38 dfbd
000002d0: 3d89 253c 649b 2fbf f42f 4b3e f14f 833f
000002e0: b9c3 8d3e 8617 9e3e bdf2 8abd 9791 403e
000002f0: d9bd bd3e 4bef 7d3e 42e4 573e bea6 043e
00000300: 54cc 9fbe 2dfc ccbe 98d4 6ebe 3bd8 5cbe
00000310: 0510 54be 78ae bcbd 5052 c13d dfbb f0bd
00000320: 15de 823d e0a8 aa3d 6c49 a03d 3221 a23d
00000330: 73e8 9b3d 0b26 933d 9ccf 953d 565d 8e3d
00000340: acd5 7e3e 37d9 fd3e 202c ce3e fe50 693e
00000350: 5250 0f3e 456a 163e 1cea d73d a732 9c3d
00000360: 188f 8b3e 0d13 b83e d4e0 2b3e 1b99 033d
00000370: 7bbb cf3d 2912 7dbe fdc2 3abe d61b d53e
00000380: ab60 c2be dea8 c6be 7075 9fbe a710 8ebe
00000390: 88b3 2e3d 6164 aebd bff3 843c f631 1d3e
000003a0: 3c1c 0d3f 666b eb3e 7f53 84be 5687 2d3e
000003b0: 2dd6 683d 5a6c 263e a74e 4a3e c987 503e
000003c0: b2fd 85be 3f56 8fbe 0337 d63d 2275 34be
000003d0: b522 32be 8ee4 92be 2554 a2be b6f0 79be
000003e0: 7268 c2be 0384 e3be 5a60 bbbe 9282 8bbe
000003f0: 6751 13be 9a9a a6bd 63a3 3d3e ca0b fb3d
-0.11770067 -0.51309764 -0.32846016 0.18478817 -0.036577657 -0.049650848 -0.04307034 -0.08923102
-0.34830183 0.08843606 0.00863616 -0.48426363 -0.3445623 -0.03032565 0.09460964 -0.22314082
0.77315813 0.2214288 -0.10798724 0.2843321 0.33116305 0.28157216 0.35079128 0.320205
-0.22003403 -0.50510126 -0.39576355 -0.26285776 -0.23033862 -0.22080605 -0.051077727 -0.024242336
0.24253099 0.48176718 0.44316188 0.19723772 0.10598544 0.12178447 0.050379384 0.08360835
-0.8348268 -0.12282593 -0.13190813 -0.39987057 0.24873815 -0.14084125 0.13655348 0.33394274
0.6469708 0.3830899 -0.22274429 -0.22436103 0.57226205 0.039819513 -0.34548578 0.12384338
-0.031906866 6.743394e-05 -0.0010778479 -0.0026883997 0.0034861646 -0.005696488 0.012321175 -0.06398991
0.015489546 0.012709289 -0.028333649 -0.09051058 -0.11076587 -0.23373231 -0.17502329 -0.13777943
0.632624 0.36219934 -0.20395698 0.0013819286 0.49918956 -0.0059231813 -0.052732497 0.21816255
-0.42310324 -0.36520335 -0.2954711 -0.28671423 0.036152586 0.045447465 0.09635027 0.054270927
0.20300604 0.410214 0.2507173 -0.062333584 0.07930185 0.09923963 0.1613376 0.111501224
0.028486172 0.5378916 0.4129811 0.25078303 0.1815163 0.14611952 -0.00080454844 0.07414925
-0.1659573 -0.27199665 -0.20655131 -0.010559463 0.07600041 0.2099337 0.1709933 -0.11781583
-0.29323187 -0.27300888 0.22337797 -0.021679766 -0.066298306 -0.10369859 -0.18114677 -0.09533438
-0.2921485 -0.3614289 -0.21348038 -0.1976038 -0.16390744 0.34732217 0.23638399 -0.32224086
-0.9381593 -0.28726557 0.18097317 -0.16035174 -0.10817974 -0.21114676 -0.26139325 -0.19255076
-0.34915707 -0.16009597 -0.15988693 -0.2576598 -0.17098315 -0.2271917 0.02465276 -0.0402976
-0.5067583 -0.25859985 0.17648856 -0.13589992 -0.104399316 -0.1979464 -0.23651679 -0.3254473
-0.21493961 -0.44270018 -0.32218608 -0.23070359 -0.09774595 -0.024154132 0.07486762 0.14724934
-0.34232208 0.5533405 0.43671378 0.058738194 -0.37574244 0.33680528 0.0687205 -0.53110665
0.14787355 0.40662923 0.27515855 0.15962651 0.07713293 0.07846568 -0.068150796 -0.2573148
-0.58849823 -0.004113993 0.21329607 -0.10899376 0.010103521 -0.6859648 0.19842511 1.0258771
0.27688387 0.30877322 -0.0678458 0.18805538 0.37058905 0.24798314 0.21083167 0.12954232
-0.31210577 -0.40036145 -0.23323286 -0.2156686 -0.20709236 -0.09212965 0.09439528 -0.117545836
0.06390015 0.083329916 0.07826504 0.07916488 0.076126955 0.071849905 0.07314989 0.06951396
0.24886197 0.49579784 0.4026804 0.22784802 0.13995484 0.14688976 0.105427 0.07626849
0.2725761 0.35952035 0.16784984 0.032128435 0.10143181 -0.24713959 -0.18238445 0.416228
-0.37964377 -0.3880071 -0.31144285 -0.2774708 0.042651683 -0.085152395 0.016229508 0.1535109
0.5512121 0.45980376 -0.25844952 0.16946158 0.05684488 0.1625227 0.19756566 0.20364298
-0.26170117 -0.27995488 0.104597114 -0.17622808 -0.17396052 -0.28689998 -0.31704822 -0.2440823
-0.3797031 -0.44436654 -0.36596948 -0.27248055 -0.14386521 -0.08134957 0.18519358 0.12258108

representation.model.0.spline_scaler f4 [64, 1]
00000000: aa1a 0cbf 5518 02bf fd5f 2c3f d894 18bf
00000010: 6ed8 bc3e cf6d 95bf 5375 ae3f 0b9d a838
00000020: 35c1 16be e4dd 813f 2546 0bbf 263e 953f
00000030: 92a6 653f a1c4 54bf be55 afbe 8a15 fbbe
00000040: 6a97 7cbf 0004 8ebe 2ab7 70bf bf33 0dbf
00000050: ef90 9f3f ee41 2c3f 752b d93f f1c5 673f
00000060: ca71 e8be bde8 5bbf 3b9e 1a3f ad57 213f
00000070: 6820 eebe 24ca 3c3f b19b 6abf e437 8ebf
00000080: d9a0 74be dc29 01bf 91a3 92bf 67fb 773f
00000090: ddd3 153f 1433 853f 339d d53f b08d 92bf
000000a0: 464c d73e 01ec 9cbf bf5f 683f adcd 7f3f
000000b0: 2b60 49bf 0b7e bc3e 53cb 133f d9d8 483f
000000c0: b6fc 74bf cc63 4f3f 552d be3e 3bb9 a53f
000000d0: d3f7 39bf 4597 85bf b860 203f dc7d d13e
000000e0: 5d3c f93f 7e64 823f d906 933f 9814 143f
000000f0: 91d2 7b3f 0ddf 78bf 996a 863f 6ef0 4d3f
-0.54728186 -0.5081838 0.67333966 -0.5960212 0.36883873 -1.1674136 1.3629555 8.040116e-05
-0.1472214 1.0145841 -0.5440391 1.1659591 0.8970729 -0.8311253 -0.34245104 -0.4903987
-0.9866854 -0.27737427 -0.94029486 -0.55157083 1.2466105 0.672881 1.6966387 0.9053641
-0.45399314 -0.85902005 0.6039769 0.6302441 -0.465091 0.7374594 -0.91643816 -1.1110806
-0.23889484 -0.504545 -1.1456167 0.96867985 0.585264 1.0406213 1.6688598 -1.144949
0.4205038 -1.2259523 0.90771097 0.9992321 -0.78662366 0.36814913 0.57732123 0.78455883
-0.95698106 0.8101165 0.3714396 1.2947153 -0.72643775 -1.0436789 0.6264758 0.40916336
1.9471546 1.0186918 1.1486465 0.57843924 0.98368174 -0.9721535 1.0501281 0.8044499

representation.model.0.grid f4 [1, 12]
00000000: 9a99 19bf cdcc ccbe cdcc 4cbe 0000 0000
00000010: cdcc 4c3e cdcc cc3e 9a99 193f cdcc 4c3f
00000020: 0000 803f 9a99 993f 3333 b33f cdcc cc3f
-0.6 -0.4 -0.2 0.0 0.2 0.4 0.6 0.8
1.0 1.2 1.4 1.6

target_representation.model.0.base_weight f4 [64, 1]
00000000: fe48 75bd 27db 8d3f 8965 98be e7b4 813f
00000010: 4a71 243f 8619 6e3c 07bf b3bd efa9 123f
00000020: 091a 2fbd ebe0 24be 0a3b 173f eab9 56be
00000030: 6d7d cdbd 08f6 ea3e 37ff b2bd 9055 353f
00000040: 71ae 9bbe 73ca 14bf 5c27 8dbe 250e c23e
00000050: a20e d0bd 2686 8a3e d2d8 583f 4e20 dbbe
00000060: 42a4 7d3f 0cbc 02bc 529b 4a3f 4ea1 3f3f
00000070: 19db 413f d6eb 34be ad66 b6be 1359 7f3f
00000080: 16ee 8abd 8977 823f a8d3 1fbf 7506 19bf
00000090: ddde 7f3f b3c1 c5bd 8561 863d 6b2a 4dbf
000000a0: 08d7 c03e 5344 b53e f952 0d3f 0501 833f
000000b0: c586 97be 454a 853e 89d7 4e3e c37e 613f
000000c0: 9426 6fbe c074 48bd 4061 533f 9495 593f
000000d0: 7c11 623f 41bb 5a3e 6704 dc3e 9109 b2bd
000000e0: 109c e83d 8427 21bf 4ab0 303f 8732 bcbd
000000f0: 3639 b1be 74a8 3a3e 5fed a5be 28d0 86be
-0.059884064 1.1082505 -0.29764965 1.0133332 0.64235365 0.014532452 -0.0877667 0.5729055
-0.04274944 -0.16101424 0.5907446 -0.20969358 -0.10033689 0.45890832 -0.087400846 0.70833683
-0.30406526 -0.58121413 -0.2756909 0.37901416 -0.10159041 0.27055472 0.8470584 -0.42798084
0.9907876 -0.007979404 0.7914325 0.74855506 0.7572494 -0.1766809 -0.3562521 0.9974529
-0.067836925 1.0192729 -0.62432337 -0.5977548 0.9994944 -0.09656086 0.06561569 -0.8014285
0.37664056 0.3540369 0.5520473 1.0234686 -0.29595008 0.26033226 0.20199408 0.8808405
-0.2335456 -0.048939466 0.82570267 0.84993863 0.8830793 0.21360494 0.4297211 -0.08693231
0.113578916 -0.6295092 0.69018996 -0.09189325 -0.3461396 0.18228322 -0.32407662 -0.26330686

target_representation.model.0.spline_weight f4 [64, 1, 8]
00000000: 0d0d f1bd 5e5a 03bf ee2b a8be 1c39 3d3e
00000010: 74d2 15bd b05e 4bbd 866a 30bd c1be b6bd
00000020: 9e54 b2be f71d b53d ae7e 0d3c 67f1 f7be
00000030: 786a b0be 7f6d f8bc b3c2 c13d 077f 64be
00000040: b1ed 453f 3bbe 623e 6a28 ddbd fa93 913e
00000050: 348e a93e 3a2a 903e ea9a b33e e9f1 a33e
00000060: 9a50 61be 514e 01bf 85a1 cabe 4b95 86be
00000070: e3dd 6bbe fb1a 62be e136 51bd dd97 c6bc
00000080: 0b5a 783e 30aa f63e 1de6 e23e aff8 493e
00000090: e50e d93d 236a f93d 9d5a 4e3d db3a ab3d
000000a0: 36b7 55bf 298c fbbd ed12 07be d6bb ccbe
000000b0: 37b5 7e3e b038 10be add4 0b3e 8bfa aa3e
000000c0: e19f 253f 5c24 c43e 1417 64be e6be 65be
000000d0: c47f 123f c919 233d 83e3 b0be 99a1 fd3d
000000e0: c6b0 02bd 526b 8d38 9346 8dba dd2f 30bb
000000f0: 2378 643b 9ba9 babb c1de 493c 240d 83bd
00000100: ddc7 7d3c 9f3a 503c f81b e8bc 9c5d b9bd
00000110: 37d9 e2bd 8657 6fbe 4e39 33be 0d16 0dbe
00000120: a5f3 213f 3172 b93e 19da 50be d421 b53a
00000130: c695 ff3e 3f17 c2bb 08fe 57bd 0166 5f3e
00000140: fda0 d8be effb babe fd47 97be 35cc 92be
00000150: bc14 143d 1f27 3a3d 4a53 c53d 314b 5e3d
00000160: d1e0 4f3e 9207 d23e 055e 803e 8051 7fbd
00000170: 0269 a23d 263e cb3d af35 253e c15a e43d
00000180: d55b e93c 44b3 093f 4272 d33e a266 803e
00000190: 69df 393e 5ba0 153e 55e8 52ba 90db 973d
000001a0: b6f0 29be 2543 8bbe 3082 53be 9901 2dbc
000001b0: 1aa6 9b3d dcf8 563e de18 2f3e 6d49 f1bd
000001c0: 7d22 96be d2c7 8bbe 32bd 643e c499 b1bc
000001d0: 68c7 87bd ed5f d4bd 8a7e 39be ac3e c3bd
000001e0: 7d94 95be 350d b9be 9a9a 5abe a758 4abe
000001f0: 5ad7 27be 36d4 b13e a50e 723e c1fc a4be
00000200: 352b 70bf 7914 93be 0851 393e 3f33 24be
00000210: 578d ddbd db36 58be 56d5 85be 072c 45be
00000220: b7c4 b2be 33f0 23be 66b9 23be fceb 83be
00000230: 3516 2fbe f1a4 68be 96f4 c93c 190f 25bd
00000240: e9ba 01bf 3367 84be 6bb9 343e 5929 0bbe
00000250: 4fcf d5bd 76b2 4abe 7531 72be 07a1 a6be
00000260: 2119 5cbe 99a9 e2be 93f5 a4be 903d 6cbe
00000270: 072f c8bd e3de c5bc 3254 993d 88c8 163e
00000280: d744 afbe b9a7 0d3f f398 df3e 7697 703d
00000290: 5061 c0be be71 ac3e 55bd 8c3d 9bf6 07bf
000002a0: 2a6c 173e b531 d03e 95e1 8c3e 2275 233e
000002b0: dff7 9d3d 9db2 a03d a592 8bbd c4be 83be
000002c0: d2a7 16bf adce 86bb 496a 5a3e 1f38 dfbd
000002d0: 3d89 253c 649b 2fbf f42f 4b3e f14f 833f
000002e0: b9c3 8d3e 8617 9e3e bdf2 8abd 9791 403e
000002f0: d9bd bd3e 4bef 7d3e 42e4 573e bea6 043e
00000300: 54cc 9fbe 2dfc ccbe 98d4 6ebe 3bd8 5cbe
00000310: 0510 54be 78ae bcbd 5052 c13d dfbb f0bd
00000320: 15de 823d e0a8 aa3d 6c49 a03d 3221 a23d
00000330: 73e8 9b3d 0b26 933d 9ccf 953d 565d 8e3d
00000340: acd5 7e3e 37d9 fd3e 202c ce3e fe50 693e
00000350: 5250 0f3e 456a 163e 1cea d73d a732 9c3d
00000360: 188f 8b3e 0d13 b83e d4e0 2b3e 1b99 033d
00000370: 7bbb cf3d 2912 7dbe fdc2 3abe d61b d53e
00000380: ab60 c2be dea8 c6be 7075 9fbe a710 8ebe
00000390: 88b3 2e3d 6164 aebd bff3 843c f631 1d3e
000003a0: 3c1c 0d3f 666b eb3e 7f53 84be 5687 2d3e
000003b0: 2dd6 683d 5a6c 263e a74e 4a3e c987 503e
000003c0: b2fd 85be 3f56 8fbe 0337 d63d 2275 34be
000003d0: b522 32be 8ee4 92be 2554 a2be b6f0 79be
000003e0: 7268 c2be 0384 e3be 5a60 bbbe 9282 8bbe
000003f0: 6751 13be 9a9a a6bd 63a3 3d3e ca0b fb3d
-0.11770067 -0.51309764 -0.32846016 0.18478817 -0.036577657 -0.049650848 -0.04307034 -0.08923102
-0.34830183 0.08843606 0.00863616 -0.48426363 -0.3445623 -0.03032565 0.09460964 -0.22314082
0.77315813 0.2214288 -0.10798724 0.2843321 0.33116305 0.28157216 0.35079128 0.320205
-0.22003403 -0.50510126 -0.39576355 -0.26285776 -0.23033862 -0.22080605 -0.051077727 -0.024242336
0.24253099 0.48176718 0.44316188 0.19723772 0.10598544 0.12178447 0.050379384 0.08360835
-0.8348268 -0.12282593 -0.13190813 -0.39987057 0.24873815 -0.14084125 0.13655348 0.33394274
0.6469708 0.3830899 -0.22274429 -0.22436103 0.57226205 0.039819513 -0.34548578 0.12384338
-0.031906866 6.743394e-05 -0.0010778479 -0.0026883997 0.0034861646 -0.005696488 0.012321175 -0.06398991
0.015489546 0.012709289 -0.028333649 -0.09051058 -0.11076587 -0.23373231 -0.17502329 -0.13777943
0.632624 0.36219934 -0.20395698 0.0013819286 0.49918956 -0.0059231813 -0.052732497 0.21816255
-0.42310324 -0.36520335 -0.2954711 -0.28671423 0.036152586 0.045447465 0.09635027 0.054270927
0.20300604 0.410214 0.2507173 -0.062333584 0.07930185 0.09923963 0.1613376 0.111501224
0.028486172 0.5378916 0.4129811 0.25078303 0.1815163 0.14611952 -0.00080454844 0.07414925
-0.1659573 -0.27199665 -0.20655131 -0.010559463 0.07600041 0.2099337 0.1709933 -0.11781583
-0.29323187 -0.27300888 0.22337797 -0.021679766 -0.066298306 -0.10369859 -0.18114677 -0.09533438
-0.2921485 -0.3614289 -0.21348038 -0.1976038 -0.16390744 0.34732217 0.23638399 -0.32224086
-0.9381593 -0.28726557 0.18097317 -0.16035174 -0.10817974 -0.21114676 -0.26139325 -0.19255076
-0.34915707 -0.16009597 -0.15988693 -0.2576598 -0.17098315 -0.2271917 0.02465276 -0.0402976
-0.5067583 -0.25859985 0.17648856 -0.13589992 -0.104399316 -0.1979464 -0.23651679 -0.3254473
-0.21493961 -0.44270018 -0.32218608 -0.23070359 -0.09774595 -0.024154132 0.07486762 0.14724934
-0.34232208 0.5533405 0.43671378 0.058738194 -0.37574244 0.33680528 0.0687205 -0.53110665
0.14787355 0.40662923 0.27515855 0.15962651 0.07713293 0.07846568 -0.068150796 -0.2573148
-0.58849823 -0.004113993 0.21329607 -0.10899376 0.010103521 -0.6859648 0.19842511 1.0258771
0.27688387 0.30877322 -0.0678458 0.18805538 0.37058905 0.24798314 0.21083167 0.12954232
-0.31210577 -0.40036145 -0.23323286 -0.2156686 -0.20709236 -0.09212965 0.09439528 -0.117545836
0.06390015 0.083329916 0.07826504 0.07916488 0.076126955 0.071849905 0.07314989 0.06951396
0.24886197 0.49579784 0.4026804 0.22784802 0.13995484 0.14688976 0.105427 0.07626849
0.2725761 0.35952035 0.16784984 0.032128435 0.10143181 -0.24713959 -0.18238445 0.416228
-0.37964377 -0.3880071 -0.31144285 -0.2774708 0.042651683 -0.085152395 0.016229508 0.1535109
0.5512121 0.45980376 -0.25844952 0.16946158 0.05684488 0.1625227 0.19756566 0.20364298
-0.26170117 -0.27995488 0.104597114 -0.17622808 -0.17396052 -0.28689998 -0.31704822 -0.2440823
-0.3797031 -0.44436654 -0.36596948 -0.27248055 -0.14386521 -0.08134957 0.18519358 0.12258108

target_representation.model.0.spline_scaler f4 [64, 1]
00000000: aa1a 0cbf 5518 02bf fd5f 2c3f d894 18bf
00000010: 6ed8 bc3e cf6d 95bf 5375 ae3f 0b9d a838
00000020: 35c1 16be e4dd 813f 2546 0bbf 263e 953f
00000030: 92a6 653f a1c4 54bf be55 afbe 8a15 fbbe
00000040: 6a97 7cbf 0004 8ebe 2ab7 70bf bf33 0dbf
00000050: ef90 9f3f ee41 2c3f 752b d93f f1c5 673f
00000060: ca71 e8be bde8 5bbf 3b9e 1a3f ad57 213f
00000070: 6820 eebe 24ca 3c3f b19b 6abf e437 8ebf
00000080: d9a0 74be dc29 01bf 91a3 92bf 67fb 773f
00000090: ddd3 153f 1433 853f 339d d53f b08d 92bf
000000a0: 464c d73e 01ec 9cbf bf5f 683f adcd 7f3f
000000b0: 2b60 49bf 0b7e bc3e 53cb 133f d9d8 483f
000000c0: b6fc 74bf cc63 4f3f 552d be3e 3bb9 a53f
000000d0: d3f7 39bf 4597 85bf b860 203f dc7d d13e
000000e0: 5d3c f93f 7e64 823f d906 933f 9814 143f
000000f0: 91d2 7b3f 0ddf 78bf 996a 863f 6ef0 4d3f
-0.54728186 -0.5081838 0.67333966 -0.5960212 0.36883873 -1.1674136 1.3629555 8.040116e-05
-0.1472214 1.0145841 -0.5440391 1.1659591 0.8970729 -0.8311253 -0.34245104 -0.4903987
-0.9866854 -0.27737427 -0.94029486 -0.55157083 1.2466105 0.672881 1.6966387 0.9053641
-0.45399314 -0.85902005 0.6039769 0.6302441 -0.465091 0.7374594 -0.91643816 -1.1110806
-0.23889484 -0.504545 -1.1456167 0.96867985 0.585264 1.0406213 1.6688598 -1.144949
0.4205038 -1.2259523 0.90771097 0.9992321 -0.78662366 0.36814913 0.57732123 0.78455883
-0.95698106 0.8101165 0.3714396 1.2947153 -0.72643775 -1.0436789 0.6264758 0.40916336
1.9471546 1.0186918 1.1486465 0.57843924 0.98368174 -0.9721535 1.0501281 0.8044499

target_representation.model.0.grid f4 [1, 12]
00000000: 9a99 19bf cdcc ccbe cdcc 4cbe 0000 0000
00000010: cdcc 4c3e cdcc cc3e 9a99 193f cdcc 4c3f
00000020: 0000 803f 9a99 993f 3333 b33f cdcc cc3f
-0.6 -0.4 -0.2 0.0 0.2 0.4 0.6 0.8
1.0 1.2 1.4 1.6

eval_Qhead.model.0.base_weight f4 [64, 64]
00000000: be39 e3bc ca38 673d bf4c 293f 43a2 afbd
00000010: e03c 07be 9a06 883e e008 203f fe0b 1dbd
00000020: 2cb4 fe3d 00d0 133f 5dd6 14bc 7fe8 c13c
00000030: f7f2 103e cd0a bebc 2038 653e c178 e8bc
00000040: 7b48 473f 73c3 253d 50dc cc3e 7865 fabd
00000050: 42d9 b03d 1f2b 9fbd 9799 a93c 05ea 993e
00000060: d3c2 a0bd f7d5 ccbd b1f8 903c 9d92 c5bd
00000070: 0b34 29bd e393 103f 4ef3 cb3e f3b8 0d3d
00000080: 7202 a53e d937 0ebe 2a07 3e3f f3a5 db3e
00000090: 33e8 73bd e225 cd3d 8372 ecbe d581 203f
000000a0: 9634 d53c caa0 343d 59fd ec3c bd05 89bc
000000b0: 8e3e e03e e8b9 643d 7aea e63d 78ed 8b3d
000000c0: 5d31 403f bab3 ef3e 5517 c73d 1cf4 0338
000000d0: db59 063d 5730 b03d 622d 60bd cb1f c33d
000000e0: ddee 133f ff3f bd3e 5635 51bd c6f3 b63e
000000f0: 8375 523f d346 923c 36b3 223f 706a 2e3e
00000100: 6fc9 b53e 169a db3e af7e 8d3e afdb bb3e
00000110: 5111 e13e 5e2e 843e dbfb 3a3e 48c6 823e
00000120: d86a 963d 72bd 493d 4912 ab3e e03e c23e
00000130: 943e 063f 6f67 8b3e 15f5 d5bd f1ec 853e
00000140: 138e ac3e 6135 87bc 9394 563c 1416 a43e
00000150: e550 153f f5f9 953e 13d2 bf3e c1b7 963d
00000160: 9c29 e63e bfa4 fc3d 15af bb3e 0284 503e
00000170: d82b a53e 1ba7 38bd 8aca 9e3d f2fe c73e
00000180: 0d9c 6abd c0a7 cf3e 552e f43e 62ec 893d
00000190: 8841 e43e afc1 043f 5a8f d53e 3781 203d
000001a0: 52a4 d73e 9aca c23e 57d0 bb3e 90a5 b73e
000001b0: ba79 663e 75bf e43e 0fcd a03e 7e2a 9c3e
000001c0: 09fd 023e afe0 f13e f76d cb3e 61e5 ca3e
000001d0: 10c5 da3e af91 8b3e bb97 783e ce48 d13e
000001e0: 20b8 803e 096b 4a3c 350b 8b3e f797 4c3e
000001f0: e68b 053f 3210 823e b85c a63e ac4b a83d
00000200: b380 be3e 56a7 873e b1ca 113e 44b4 b73e
00000210: 5596 b93e b787 b43e 7286 333f 595f 893e
00000220: 8e12 e2bd c72b 103f ee20 883e 87fe 943e
00000230: 8bf8 573e eabc 7a3e de01 df3d 6e12 ae3e
00000240: 303e a33e 7ccd 0cbd 3e0d 1f3e 64a0 643e
00000250: bc7f 8e3e 7839 483e 317c 453e af2d d53e
00000260: 29c6 b03e 7266 533d c56e ce3e 815f 653e
00000270: c0ae c13e ed37 c03e 0e7a b63e ffdd 783e
00000280: 9936 663e eb6b 8a3e 1b0f 9e3e 27a5 043f
00000290: e9e0 8e3e da03 903e 7cc9 a8bd 4637 063f
000002a0: 89fb 803e 01c5 cf3e b25a 693e 3d7b 823e
000002b0: 3785 e13e cd7f 803e 08fb 633e d7e8 ce3e
000002c0: b8ba 083f 0bee 8f3e 9961 373e a407 853e
000002d0: fe9c a73e f0e3 613e 08ab 6a3e 29c8 ac3e
000002e0: 3e09 7a3e c348 203f b7d6 c03e e6e2 e43e
000002f0: f7bf 0e3e a458 2f3e 613e 5e3e d85d a23d
00000300: 7929 843e 2b42 273e ec2d 913c c270 523e
00000310: 11aa b23e 28a0 4c3e 7aa5 803d 8537 343e
00000320: bf1d 363c 705c 873d 5123 f73d 402c 573e
00000330: b746 c53e b0f8 813e 9b23 2bbe afb3 063e
00000340: 2d6d 0f3e 5e5e c43d f7e2 b9bc 0b64 a23e
00000350: b0e2 b13e 4975 003e 266b 3a3e 1f64 413d
00000360: ac1a 9c3e 0ab2 08bd 99e5 423e 3abb 1e3e
00000370: 35af aa3e 82bf 31bd 091f 78bd 393f ab3e
00000380: 3510 813c 11f0 403e e60f 173e 6743 c43d
00000390: 4c2c 143e ce65 7e3e 1037 1f3f 04f1 e1bd
000003a0: 94d5 913e 6f5b 2e3e 51b2 0d3e d78f b13e
000003b0: b166 633d 68f5 993e 9fee 423e 96e2 f43d
000003c0: e447 aebd 2f3a a23e 8bf7 6f3e 9006 a93e
000003d0: 72ed 923e 6012 b33e 0477 b13e 8174 823d
000003e0: efee 863e e9a5 093d 262c 833e c29a ee3d
000003f0: 751e 553e 1923 8b3e a0c4 773d e70b 613d
-0.027737495 0.056450643 0.6613273 -0.08575871 -0.13206816 0.26567537 0.6251354 -0.038341515
0.12436709 0.5773926 -0.009084311 0.023670433 0.14155184 -0.02319851 0.22384691 -0.028377892
0.7784497 0.040469598 0.40011835 -0.12226385 0.08635189 -0.077718966 0.02070312 0.30061355
-0.0784966 -0.10001748 0.01769671 -0.09647105 -0.041309398 0.5647566 0.39834064 0.03460021
0.32228428 -0.13888492 0.7422968 0.42900047 -0.059547614 0.10016991 -0.46181116 0.6269811
0.026026051 0.044098653 0.0289294 -0.016726369 0.43797725 0.055841357 0.112751916 0.06832403
0.7507532 0.46816808 0.09721247 3.146018e-05 0.032800537 0.0860297 -0.05473078 0.095275484
0.5778635 0.36962888 -0.051076256 0.3573286 0.8221056 0.017856037 0.63554704 0.1703279
0.35505244 0.42890996 0.27635714 0.36691043 0.43958524 0.25816625 0.18260138 0.25541902
0.073445976 0.049252935 0.33412388 0.37938595 0.52439237 0.2722735 -0.10447136 0.26157334
0.33702144 -0.016504945 0.013096946 0.32048094 0.5832656 0.29292265 0.3746496 0.07359267
0.4495362 0.1233611 0.36657014 0.20362857 0.32260013 -0.04508124 0.07753475 0.39061695
-0.057277728 0.4055767 0.476916 0.067345396 0.44581246 0.5185804 0.4171093 0.03918573
0.42117554 0.38045198 0.36682388 0.35868502 0.22507372 0.4467732 0.31406447 0.3050117
0.12791838 0.47241732 0.39732334 0.39628127 0.42728472 0.27259585 0.2427663 0.40875858
0.25140476 0.012354621 0.27156988 0.19979845 0.52166593 0.2540298 0.32492614 0.08217558
0.37207565 0.26494855 0.14237477 0.3587972 0.36247507 0.35259792 0.7012702 0.26830557
-0.11038695 0.563168 0.26587623 0.2910044 0.21090905 0.24486127 0.10889028 0.33998436
0.31883383 -0.034375653 0.15532395 0.22326809 0.2783183 0.19553173 0.19285657 0.41636416
0.34526184 0.05161137 0.40318885 0.22399713 0.37828636 0.37542668 0.35639995 0.24303435
0.22481765 0.2703546 0.308709 0.518145 0.27905968 0.28127939 -0.08241555 0.5242809
0.25191906 0.4057999 0.22788504 0.25484648 0.44046947 0.25097504 0.2226373 0.40412018
0.5340991 0.281113 0.17908324 0.25982392 0.32736963 0.22059608 0.22916806 0.3374646
0.24417588 0.62611026 0.37663814 0.4470436 0.13940416 0.17123657 0.21703483 0.079280555
0.2581289 0.16333835 0.017722093 0.20550826 0.34895375 0.1998297 0.06281562 0.17599304
0.01111549 0.06609428 0.12067283 0.21012974 0.38530514 0.25385046 -0.16712801 0.13154481
0.14006491 0.095883116 -0.022691233 0.31716952 0.3474326 0.1254474 0.18204936 0.047214624
0.304891 -0.033372916 0.19032897 0.15501109 0.33336797 -0.043395527 -0.060576472 0.33446673
0.015754798 0.18841578 0.14752159 0.095831685 0.14470023 0.24843523 0.62193394 -0.11032298
0.2848326 0.17027067 0.13837554 0.34680054 0.055517856 0.30070043 0.19036339 0.1195728
-0.08509806 0.31685016 0.23434274 0.3301282 0.2869678 0.34974957 0.34661114 0.063698776
0.26354167 0.03360549 0.2561962 0.116506115 0.208124 0.27175215 0.06049025 0.05494299

eval_Qhead.model.0.spline_weight f4 [64, 64, 8]
00000000: 3d65 9cbb c60f bb3a 83da b9ba f848 593b
00000010: d582 24bc ca06 983c 1d9b 91bc 2b05 d0bb
00000020: 5502 e5bd adc2 acbe 6582 243e 3409 9abe
00000030: d117 cdbd eaf6 4ebe 1284 dc3d 838c 513e
00000040: 7c8c f1ba bee3 a93d 1c24 303e 9e89 a93c
00000050: f655 9d3c 5175 5fbc 2bde 843c c5a2 bc3b
00000060: 71b3 af3c 34d3 223e 6063 be3a a4bc 45bc
00000070: 0412 7dbb 166f 34bb 9a55 933b 5daa c33b
00000080: e4bc c13d 54b3 423d 095e 02bc a6e5 c43a
00000090: 2f02 09bb 74db 1b3c 7a08 c2bb 44a6 883a
000000a0: 1b2e 8abd 4fdc 2b3e fe85 2abe 223c 8bbe
000000b0: f41f 503d 580e 28bc f371 263c ae33 6e3b
000000c0: 3fe9 1c3e 68a9 87be 1b10 053f 85ec 053e
000000d0: 57b7 4cbe 871a 243c 3016 f03a 8aa1 d239
000000e0: 4d4c c0bd ea3a a83c 6fe9 64bd f850 68bd
000000f0: f6b5 c33d a6b7 073e 5a4e a7bb 6508 b6ba
00000100: 206b 6b3c 8858 62bd f2aa 67bc b840 0a3c
00000110: 0cfe a43b f57a 04bc 6000 343b 275d b43a
00000120: f554 f23b c20e 1abc c465 ec3b 5d57 8fbc
00000130: 65a8 003c b293 19bc b207 12bc 814e c0ba
00000140: 865e fcbd 9df7 81bd df02 693c e655 bcbb
00000150: 43be a43b c7c5 53bc a09e d23c bcd4 b63b
00000160: 6749 11bd b61e 31be 8e42 363e ecb9 80bd
00000170: faca 41be 79bf 6e3c af60 8ebc 8ca8 c5bb
00000180: d6d5 8abd b488 a93c 0032 393e 83ba d3bd
00000190: d077 b43c 608b 82bb ed67 85bb 06f1 97ba
000001a0: 9cc7 ddbd 2b37 aabd 977f ab3c e97b c4bc
000001b0: 03ae 8e3c b09a 873d 5154 afbb 3449 4cb8
000001c0: 7f0d b539 eb70 433b 6658 b0ba c186 dd3b
000001d0: 1d75 76bc 318e 523b 228d 8a3b 9d09 103a
000001e0: 7356 443e 472d 9c3d 095a dfbb 2177 903d
000001f0: 2c06 36bd eb2b 55be 57c8 29be d45e 9fba
00000200: ec09 293b 9251 963d 00dd 023e 5652 023e
00000210: 6c2b e0bb 92d3 c83b 5eff 56bb a981 caba
00000220: 0f18 883e 777e ad3d 0317 393e cec4 35bb
00000230: 5387 7039 8142 b13b 56a9 293b 633a b139
00000240: 8eb6 06bd 1bbc 85bd 0fd4 c1bd 44f7 ccbd
00000250: e1cf 533a 3614 32bc 04d7 263c 73b5 6d3b
00000260: 8405 b5bd d710 b3bd 3430 903c ba95 31bc
00000270: 6476 f73b 70e2 1fba c8bf 1cbb 7387 70ba
00000280: c404 923d 4621 d8bd 805b 01bd 21bf 4c3e
00000290: e78d 93bd 1a9c 31be b5b2 51bc 71b5 97bb
000002a0: 3f52 cf3d 5072 803d a8cc 5ebc fd50 783c
000002b0: cfed e53b bda4 de3b f34b 793a 0b07 f9b8
000002c0: 100c a0be c2ad 743e d308 a03e 93d0 873d
000002d0: bcae 393d ec18 dbbe 188a 14bf 1fa9 1dba
000002e0: 4070 813d 26bb 7d3d 9c1a 5f3e d559 173e
000002f0: 541d b8bb fff1 24bb b748 1abc e3f2 22bb
00000300: 193b 783d 97c9 cd3d f0a6 2abc 4e96 9339
00000310: 4949 253b 5fa7 a338 4ff7 333b fa0e 15bd
00000320: 676e d0bc 9bfe 6a3c 27ac 033d 755d 2c3c
00000330: 9844 85b9 41ed 67bc 1152 bdba 76e0 163a
00000340: 1d97 b63d ca9e 2b3e d1a0 f43a 4b9a cebb
00000350: 9736 75b9 dfa5 203a 3e2a 2b3c 14eb b1bd
00000360: 2170 03be d6d5 d9bc f0ea a03b d2fd 0abb
00000370: be90 013b 8f6a 20bc 17bc fb3d dad9 92ba
00000380: 7a0c 4b3e 54f9 d33d 5841 0d3d c0bb 3b3d
00000390: 2c90 4b3d 7481 f7bd 91f2 1dbe 2ca4 0ebc
000003a0: 2530 043b 1a6f 21bb 7f81 403a 65c6 223e
000003b0: 0135 953a 40cf 6a3c 4eb3 adbb c0d2 21bb
000003c0: 5447 1dbd f013 1bbc 94a9 37be 2a2c edbd
000003d0: 4c71 033c e96e a0bc 5e07 833c 5464 c03b
000003e0: 28a5 093b 5945 7c3e a1b6 ea3d 3804 823b
000003f0: 026d 63bb 4d10 9e3b f531 d2bb a85b 87bd
-0.0047728107 0.0014271669 -0.0014179501 0.0033155065 -0.010040958 0.018557925 -0.01777416 -0.0063482723
-0.111820854 -0.33742276 0.16065367 -0.30085146 -0.10014308 -0.20211378 0.10767378 0.20463757
-0.0018428708 0.082953915 0.17201275 0.020695504 0.019206028 -0.01363881 0.01621922 0.0057567083
0.021447869 0.1590088 0.0014525466 -0.012068901 -0.0038615474 -0.0027532033 0.0044962885 0.0059712366
0.09459856 0.047534302 -0.00795699 0.0015022054 -0.0020905843 0.009512771 -0.0059214206 0.0010425528
-0.06747075 0.1678326 -0.16652676 -0.27194315 0.050811723 -0.010257326 0.010159004 0.0036346721
0.15323351 -0.26496434 0.519777 0.13078506 -0.19991814 0.01001609 0.0018317159 0.00040174677
-0.09389553 0.020535905 -0.055886682 -0.056717843 0.09556191 0.1325365 -0.005105776 -0.0013888
0.014368802 -0.05526021 -0.014139878 0.008438282 0.0050351676 -0.008085956 0.0027466044 0.0013760672
0.0073953816 -0.009402933 0.00721428 -0.017497713 0.007852648 -0.009373592 -0.0089129675 -0.0014671833
-0.123227164 -0.063460566 0.014221876 -0.0057475446 0.005027564 -0.012925572 0.025710404 0.005579559
-0.035470393 -0.17296872 0.17798826 -0.06285462 -0.18925086 0.014572018 -0.017380087 -0.0060320552
-0.06779067 0.020695068 0.1808548 -0.10338309 0.022029787 -0.0039839 -0.004071227 -0.0011592216
-0.10829088 -0.08311304 0.020934863 -0.023984866 0.01741696 0.06621301 -0.0053506275 -4.8705566e-05
0.00034533066 0.0029821943 -0.0013454079 0.0067604487 -0.01504257 0.003212821 0.00422825 0.00054945966
0.19173603 0.076258235 -0.006816153 0.07053972 -0.04443948 -0.20817535 -0.1658033 -0.0012158998
0.0025793267 0.07339777 0.12779617 0.12726721 -0.006841114 0.006128737 -0.003280602 -0.0015450019
0.26580855 0.08471387 0.18075185 -0.0027735713 0.00022938596 0.005409539 0.0025888286 0.00033803572
-0.03288894 -0.06530019 -0.09464275 -0.100081 0.00080799876 -0.0108690765 0.0101831 0.0036271482
-0.08838943 -0.08743446 0.01760111 -0.01083892 0.007551955 -0.00060991105 -0.0023918021 -0.0009175457
0.07129815 -0.105532214 -0.0315814 0.19994785 -0.072048 -0.17344704 -0.012798955 -0.004629784
0.10123109 0.062718034 -0.013598599 0.015156028 0.0070168744 0.0067945407 0.00095099135 -0.00011874557
-0.31259203 0.23894408 0.31256732 0.06631579 0.045332655 -0.4279245 -0.58023214 -0.0006014276
0.06320238 0.061946057 0.21787494 0.14780362 -0.0056187306 -0.0025168655 -0.009416751 -0.002486401
0.060603235 0.10048216 -0.010415778 0.0002815001 0.0025220683 7.803621e-05 0.002746064 -0.036391236
-0.025443269 0.014342929 0.0321466 0.010520329 -0.00025418843 -0.014155687 -0.0014444013 0.0005755493
0.08915541 0.16759792 0.001866365 -0.0063050142 -0.00023385357 0.00061282323 0.010447083 -0.08687416
-0.12835743 -0.026591223 0.004910819 -0.0021208418 0.001977011 -0.009791031 0.12291735 -0.0011203841
0.19828978 0.1035029 0.034486145 0.04583335 0.04969804 -0.12085238 -0.15424563 -0.008706134
0.0020170298 -0.0024632872 0.0007343515 0.15895994 0.0011383594 0.014331639 -0.005300916 -0.0024692267
-0.038398102 -0.009465203 -0.17935783 -0.11580689 0.008022618 -0.019584136 0.015994724 0.005871335
0.0021002982 0.24635829 0.11460615 0.003967788 -0.0034702425 0.0048237205 -0.0064146467 -0.06609279

eval_Qhead.model.0.spline_scaler f4 [64, 64]
00000000: 6eae 493a 0b72 3ebe 793d d03d c8f8 a8bb
00000010: 2a21 07bb 8c9a fabd 556c f93e c545 a9bc
00000020: 642f 29bd 0cec c0bb 7a6d ad3a cc0f f5bd
00000030: a33a 6d3d 1e1a 6aba 6c3a 033b b862 e83c
00000040: 4f25 9a3d 50a4 753e 6e34 b9bd 3e7a 903a
00000050: e459 bfbc 9315 6d39 216c aa3e 35c0 8e3d
00000060: df6d e8ba 30f0 61ba cf4d 2ebb ae35 b93a
00000070: bac7 273d 3ee2 8e3a 8acd ffbc 59cc d9ba
00000080: 8c41 6eb9 2753 f23b caa8 243e 885a 193e
00000090: 94ed 3a3d 02fe 86bc 668b b53e 233f 0d3d
000000a0: 4d60 d43a ab38 f53a 7de0 e33a 85bb a93a
000000b0: bc0b cf39 6a48 543a b492 30ba d011 4ebb
000000c0: 116a 423d d107 e539 3dc9 c93a d62a b33a
000000d0: 2c77 aebb bcc8 6fbb f4be b239 0a2c 0f39
000000e0: a009 303f 5f4a 953e dd1e d33d e089 d43a
000000f0: 1270 dbba cabc a6b9 a960 3d3a 6432 ceb8
00000100: 51cd bfbe 4e7c e73e 2e9d 01bf 438d 063f
00000110: bfc0 df3e c2e4 dd3e 3082 d6be c422 f33e
00000120: 24d5 c8be 2f8b d4be eefb f73e 9329 f3be
00000130: d379 ca3e 01a4 d13e 8a07 c63e 5d6b ebbe
00000140: 6a46 dd3e 119d f5be 29e3 dbbe 675f d6be
00000150: 0cfb e33e 730e f43e 4388 fcbe a1b3 e8be
00000160: fc45 03bf 19d7 dc3e 1f7b f1be 9e28 da3e
00000170: aacf f1be f466 f43e 4d3e da3e 6be4 073f
00000180: f775 dc3e 57bb debe 278a f83e ba95 d43e
00000190: 40f0 00bf beca f2be 855f f53e e9ff fdbe
000001a0: 8a70 c83e 3e22 ce3e 985f f5be 03c7 debe
000001b0: 01e1 ea3e 2d5f e03e 661c 02bf 45b4 e33e
000001c0: 0142 debe 92d5 f43e 8553 e23e 69b0 e0be
000001d0: bf26 d7be 55cd f23e efee ec3e d82e eebe
000001e0: 448a ce3e ae59 cebe b0f8 f63e 15cd f3be
000001f0: 0300 dc3e 395a cdbe 5d7a fb3e 23ee f03e
00000200: d4fe bcbe 8216 893e 54e6 86be ee39 993e
00000210: ef0b c93e c5f1 b43e 111b 98be efe7 b33e
00000220: 8857 9a3e cea0 cabe b1f2 b7be 0984 83be
00000230: a374 d03e 7b10 c5be f3ce c7be fbf8 8ebe
00000240: 9fc1 a53e 140d b8be 731f c3be 27d7 c63e
00000250: d52c 1339 0556 b83e fcbb b8be 5f8c b33e
00000260: cbed be3e cf1c a23e 1225 a23e 4930 d7be
00000270: e26d 9abe f016 b73e 1f71 ae3e 68fa c2be
00000280: 105d aa3e 3f6f b5be da66 803e dec9 8dbe
00000290: 710c a33e f84d b9be 2b38 c1be 8a32 d7be
000002a0: a2af 933e 784e 63b9 a8e1 a2be 5e46 91be
000002b0: 6e5e b63e c097 9dbe 00af 99be e626 c43e
000002c0: a8d8 9cbe 3727 aebe 90e5 c3be e064 c6be
000002d0: 7b32 ac3e dead b2be d4b5 86be 3269 9cbe
000002e0: 636a 683e a443 cbbe f2b9 afbe 46c9 89be
000002f0: 3a00 98be a83c 9ebe dcc3 c8be 3229 b63e
00000300: bf32 9d3e b52e 623e 4fcd afbe b9ad 16be
00000310: 85b9 a33e 4dc9 983e 176b 9e3e bee9 ae3e
00000320: 3339 963e 7d3b b53e 0da3 8abe 756e 8d3e
00000330: 4309 aabe 3204 5a3e 1f7a a33e 97fb 9c3e
00000340: 721f be3e 804c 6cbe 4629 66b7 b791 a43e
00000350: 4b00 acbe efd6 9fbe 97ad 88be 59ad 783e
00000360: 6ae1 9e3e 36ad 90be d22f 8bbe 09fa a03e
00000370: ea11 86be d6ce acbe a96f ad3e 8700 4abe
00000380: 8bf6 95be 0ca6 8ebe dd35 9b3e b648 8cbe
00000390: 8c35 8ebe 2605 00b5 4c10 afbe e518 55be
000003a0: 0b59 eb36 8621 8dbe d499 87be a33e 973e
000003b0: 4e3d 8d3e 7151 70be 1727 aabe 428f b23e
000003c0: 4fe6 913e 4d15 9cbe deff 85be 7aa8 1437
000003d0: 4a88 8a3e f6cc 80be 9377 9cbe 71a6 d0b6
000003e0: 0229 4abe a862 95be 8d1e 98be 4944 8c3e
000003f0: 689c bebe b070 843e 2e8c 66be 801d ab3e
0.00076935336 -0.18598191 0.10167975 -0.00515661 -0.0020619133 -0.12236509 0.48715463 -0.020663152
-0.04130496 -0.005887514 0.0013231479 -0.11965904 0.05791725 -0.00089302834 0.0020023836 0.028367385
0.07526647 0.23988461 -0.09043203 0.0011022759 -0.023358293 0.00022610118 0.3328562 0.06970254
-0.001773294 -0.00086188596 -0.002659667 0.0014130378 0.04096196 0.0010901166 -0.031225938 -0.0016616686
-0.00022721867 0.0073951664 0.16080013 0.14975941 0.04563673 -0.016478542 0.35457915 0.03448404
0.0016203016 0.0018708905 0.0017385628 0.0012949562 0.0003949086 0.0008097949 -0.00067357277 -0.0031443723
0.047464434 0.00043684107 0.0015395057 0.0013669382 -0.005324265 -0.0036588153 0.00034093077 0.00013653949
0.68764687 0.29158303 0.10308621 0.0016215406 -0.0016741774 -0.00031802646 0.00072241813 -9.8322314e-05
-0.3746133 0.45212024 -0.5063046 0.525593 0.4370174 0.4333859 -0.418962 0.47487462
-0.39225113 -0.4151244 0.48434395 -0.47492656 0.3954607 0.40945438 0.38677627 -0.4598035
0.43217784 -0.47971395 -0.42946747 -0.4186966 0.4452747 0.47667274 -0.4932271 -0.45449546
-0.5127866 0.43132856 -0.47164246 0.42609113 -0.47228748 0.47734797 0.42625657 0.53082913
0.4305875 -0.43502304 0.48542902 0.41520482 -0.5036659 -0.47420305 0.47924438 -0.49609306
0.3914836 0.402605 -0.47924495 -0.4351121 0.4587479 0.43822613 -0.5082458 0.44473472
-0.43409732 0.4781919 0.44204345 -0.4388459 -0.42021748 0.4742228 0.46276042 -0.46520114
0.40339863 -0.40302795 0.48236609 -0.47617403 0.4296876 -0.40107897 0.49116793 0.47056684
-0.36913168 0.26774985 -0.263476 0.2992701 0.39266917 0.35340706 -0.2970815 0.3513789
0.30144906 -0.3957581 -0.35927346 -0.25686672 0.40713987 -0.38489136 -0.39025077 -0.27924332
0.32374284 -0.35947478 -0.3810993 0.38836023 0.00014035714 0.36003128 -0.3608092 0.35068032
0.37290797 0.31662604 0.31668907 -0.42029026 -0.3016196 0.35759687 0.3407068 -0.3808167
0.33274126 -0.35436437 0.2507847 -0.27693075 0.3184543 -0.36192298 -0.37738165 -0.42030746
0.28844935 -0.00021677639 -0.31812787 -0.28373998 0.3561892 -0.3077984 -0.30016327 0.38310927
-0.30634046 -0.34014294 -0.3826108 -0.38748837 0.33632264 -0.34898275 -0.263106 -0.30549008
0.22696833 -0.39700043 -0.34321553 -0.26911372 -0.29687673 -0.30905652 -0.3921193 0.35578305
0.3070278 0.2208813 -0.34336326 -0.14714707 0.31977478 0.2984108 0.30941078 0.34162706
0.29340515 0.35396948 -0.27077523 0.27623335 -0.3321019 0.21290663 0.31929109 0.30660698
0.37133366 -0.23076057 -1.3718678e-05 0.32142422 -0.33593974 -0.3121867 -0.2669494 0.24284877
0.31031352 -0.2825715 -0.27184922 0.31440762 -0.26185542 -0.33751553 0.33874252 -0.19726764
-0.2928966 -0.2786106 0.30314532 -0.27399224 -0.27775228 -4.769121e-07 -0.3419212 -0.20810278
7.0139117e-06 -0.2756464 -0.2648455 0.29539976 0.27585834 -0.23468567 -0.33232948 0.34874922
0.28496024 -0.30485 -0.26171774 8.860714e-06 0.27057105 -0.25156373 -0.30559978 -6.2182594e-06
-0.19742206 -0.2917683 -0.29710808 0.27395847 -0.37228703 0.25867224 -0.22514412 0.33420944

eval_Qhead.model.0.grid f4 [64, 12]
00000000: 9a99 19bf cdcc ccbe cdcc 4cbe 0000 0000
00000010: cdcc 4c3e cdcc cc3e 9a99 193f cdcc 4c3f
00000020: 0000 803f 9a99 993f 3333 b33f cdcc cc3f
00000030: 9a99 19bf cdcc ccbe cdcc 4cbe 0000 0000
00000040: cdcc 4c3e cdcc cc3e 9a99 193f cdcc 4c3f
00000050: 0000 803f 9a99 993f 3333 b33f cdcc cc3f
00000060: 9a99 19bf cdcc ccbe cdcc 4cbe 0000 0000
00000070: cdcc 4c3e cdcc cc3e 9a99 193f cdcc 4c3f
00000080: 0000 803f 9a99 993f 3333 b33f cdcc cc3f
00000090: 9a99 19bf cdcc ccbe cdcc 4cbe 0000 0000
000000a0: cdcc 4c3e cdcc cc3e 9a99 193f cdcc 4c3f
000000b0: 0000 803f 9a99 993f 3333 b33f cdcc cc3f
000000c0: 9a99 19bf cdcc ccbe cdcc 4cbe 0000 0000
000000d0: cdcc 4c3e cdcc cc3e 9a99 193f cdcc 4c3f
000000e0: 0000 803f 9a99 993f 3333 b33f cdcc cc3f
000000f0: 9a99 19bf cdcc ccbe cdcc 4cbe 0000 0000
00000100: cdcc 4c3e cdcc cc3e 9a99 193f cdcc 4c3f
00000110: 0000 803f 9a99 993f 3333 b33f cdcc cc3f
00000120: 9a99 19bf cdcc ccbe cdcc 4cbe 0000 0000
00000130: cdcc 4c3e cdcc cc3e 9a99 193f cdcc 4c3f
00000140: 0000 803f 9a99 993f 3333 b33f cdcc cc3f
00000150: 9a99 19bf cdcc ccbe cdcc 4cbe 0000 0000
00000160: cdcc 4c3e cdcc cc3e 9a99 193f cdcc 4c3f
00000170: 0000 803f 9a99 993f 3333 b33f cdcc cc3f
00000180: 9a99 19bf cdcc ccbe cdcc 4cbe 0000 0000
00000190: cdcc 4c3e cdcc cc3e 9a99 193f cdcc 4c3f
000001a0: 0000 803f 9a99 993f 3333 b33f cdcc cc3f
000001b0: 9a99 19bf cdcc ccbe cdcc 4cbe 0000 0000
000001c0: cdcc 4c3e cdcc cc3e 9a99 193f cdcc 4c3f
000001d0: 0000 803f 9a99 993f 3333 b33f cdcc cc3f
000001e0: 9a99 19bf cdcc ccbe cdcc 4cbe 0000 0000
000001f0: cdcc 4c3e cdcc cc3e 9a99 193f cdcc 4c3f
00000200: 0000 803f 9a99 993f 3333 b33f cdcc cc3f
00000210: 9a99 19bf cdcc ccbe cdcc 4cbe 0000 0000
00000220: cdcc 4c3e cdcc cc3e 9a99 193f cdcc 4c3f
00000230: 0000 803f 9a99 993f 3333 b33f cdcc cc3f
00000240: 9a99 19bf cdcc ccbe cdcc 4cbe 0000 0000
00000250: cdcc 4c3e cdcc cc3e 9a99 193f cdcc 4c3f
00000260: 0000 803f 9a99 993f 3333 b33f cdcc cc3f
00000270: 9a99 19bf cdcc ccbe cdcc 4cbe 0000 0000
00000280: cdcc 4c3e cdcc cc3e 9a99 193f cdcc 4c3f
00000290: 0000 803f 9a99 993f 3333 b33f cdcc cc3f
000002a0: 9a99 19bf cdcc ccbe cdcc 4cbe 0000 0000
000002b0: cdcc 4c3e cdcc cc3e 9a99 193f cdcc 4c3f
000002c0: 0000 803f 9a99 993f 3333 b33f cdcc cc3f
000002d0: 9a99 19bf cdcc ccbe cdcc 4cbe 0000 0000
000002e0: cdcc 4c3e cdcc cc3e 9a99 193f cdcc 4c3f
000002f0: 0000 803f 9a99 993f 3333 b33f cdcc cc3f
00000300: 9a99 19bf cdcc ccbe cdcc 4cbe 0000 0000
00000310: cdcc 4c3e cdcc cc3e 9a99 193f cdcc 4c3f
00000320: 0000 803f 9a99 993f 3333 b33f cdcc cc3f
00000330: 9a99 19bf cdcc ccbe cdcc 4cbe 0000 0000
00000340: cdcc 4c3e cdcc cc3e 9a99 193f cdcc 4c3f
00000350: 0000 803f 9a99 993f 3333 b33f cdcc cc3f
00000360: 9a99 19bf cdcc ccbe cdcc 4cbe 0000 0000
00000370: cdcc 4c3e cdcc cc3e 9a99 193f cdcc 4c3f
00000380: 0000 803f 9a99 993f 3333 b33f cdcc cc3f
00000390: 9a99 19bf cdcc ccbe cdcc 4cbe 0000 0000
000003a0: cdcc 4c3e cdcc cc3e 9a99 193f cdcc 4c3f
000003b0: 0000 803f 9a99 993f 3333 b33f cdcc cc3f
000003c0: 9a99 19bf cdcc ccbe cdcc 4cbe 0000 0000
000003d0: cdcc 4c3e cdcc cc3e 9a99 193f cdcc 4c3f
000003e0: 0000 803f 9a99 993f 3333 b33f cdcc cc3f
000003f0: 9a99 19bf cdcc ccbe cdcc 4cbe 0000 0000
-0.6 -0.4 -0.2 0.0 0.2 0.4 0.6 0.8
1.0 1.2 1.4 1.6 -0.6 -0.4 -0.2 0.0
0.2 0.4 0.6 0.8 1.0 1.2 1.4 1.6
-0.6 -0.4 -0.2 0.0 0.2 0.4 0.6 0.8
1.0 1.2 1.4 1.6 -0.6 -0.4 -0.2 0.0
0.2 0.4 0.6 0.8 1.0 1.2 1.4 1.6
-0.6 -0.4 -0.2 0.0 0.2 0.4 0.6 0.8
1.0 1.2 1.4 1.6 -0.6 -0.4 -0.2 0.0
0.2 0.4 0.6 0.8 1.0 1.2 1.4 1.6
-0.6 -0.4 -0.2 0.0 0.2 0.4 0.6 0.8
1.0 1.2 1.4 1.6 -0.6 -0.4 -0.2 0.0
0.2 0.4 0.6 0.8 1.0 1.2 1.4 1.6
-0.6 -0.4 -0.2 0.0 0.2 0.4 0.6 0.8
1.0 1.2 1.4 1.6 -0.6 -0.4 -0.2 0.0
0.2 0.4 0.6 0.8 1.0 1.2 1.4 1.6
-0.6 -0.4 -0.2 0.0 0.2 0.4 0.6 0.8
1.0 1.2 1.4 1.6 -0.6 -0.4 -0.2 0.0
0.2 0.4 0.6 0.8 1.0 1.2 1.4 1.6
-0.6 -0.4 -0.2 0.0 0.2 0.4 0.6 0.8
1.0 1.2 1.4 1.6 -0.6 -0.4 -0.2 0.0
0.2 0.4 0.6 0.8 1.0 1.2 1.4 1.6
-0.6 -0.4 -0.2 0.0 0.2 0.4 0.6 0.8
1.0 1.2 1.4 1.6 -0.6 -0.4 -0.2 0.0
0.2 0.4 0.6 0.8 1.0 1.2 1.4 1.6
-0.6 -0.4 -0.2 0.0 0.2 0.4 0.6 0.8
1.0 1.2 1.4 1.6 -0.6 -0.4 -0.2 0.0
0.2 0.4 0.6 0.8 1.0 1.2 1.4 1.6
-0.6 -0.4 -0.2 0.0 0.2 0.4 0.6 0.8
1.0 1.2 1.4 1.6 -0.6 -0.4 -0.2 0.0
0.2 0.4 0.6 0.8 1.0 1.2 1.4 1.6
-0.6 -0.4 -0.2 0.0 0.2 0.4 0.6 0.8
1.0 1.2 1.4 1.6 -0.6 -0.4 -0.2 0.0

eval_Qhead.model.1.base_weight f4 [6, 64]
00000000: 0b89 263e 0d49 ea3e c498 973e f653 c53e
00000010: 009f ab3e 5ebf 5e3e a540 aa3e b90f ad3d
00000020: 8fe7 433e 1808 5f3e e77d 8d3e 4663 563e
00000030: edbe ca3e bfc1 4e3e 05a7 d43e e1bc fdbc
00000040: bab0 ef3e ba80 ae3e ac2e 723e 3e44 993e
00000050: 204d 873e d884 523e b2f9 d23d b4c0 e43e
00000060: f61d 133e a738 c73e f720 903e 90ca 823d
00000070: ffeb ad3d 3eea 2d3e c9f1 ab3e e186 ad3e
00000080: 7670 9f3e 755d 8a3d 4c7b 063d f458 1a3e
00000090: b1ad 963e 7160 a23e 3fe2 f43e 00f7 a13e
000000a0: bfe8 423e daeb a63e bc2e 863e feb6 5e3e
000000b0: a173 333d b1cd a93e 5cd5 8e3e dd75 013e
000000c0: 0eec 063d c64f a53e 3d94 d73d 8e48 cb3e
000000d0: d4b7 c33e 40e9 af3e be41 2d3e 077b f93d
000000e0: 4c5a 2d3e 4efd 403e 3107 71bb 5cdf 433e
000000f0: ddd1 d43e c94c 7e3e 5766 c93d 67d2 ec3e
00000100: 5cde a83e c6f2 a43e cd75 de3e 293a c83e
00000110: 4461 013f 8377 963e a878 943e 13fb 693e
00000120: a6e8 4c3e f347 303e cafa b23e fc18 f23d
00000130: bff6 893e afc7 c23e 254c 813e c0a0 aabe
00000140: 2014 983e 8387 ad3e 3b0c 413e 1394 8c3e
00000150: 9944 833e 5a8f a13e 452b 5e3e 9de0 ae3e
00000160: 4adc 4d3e f86b a83e 164d 823e 0ed0 883e
00000170: 5ed5 5b3e 2e95 2f3e bc67 c83e 1b83 ce3e
00000180: f4ca b23e 9279 f43d 8f96 d53d 8e72 343e
00000190: e5fd 093e 304b e43e f885 e53e 6cf6 813e
000001a0: ba52 b43e 842a dd3e ec09 ac3e db16 4b3e
000001b0: e9bb 643e 322b c53e 86cc 8c3e 6cd3 393e
000001c0: ca5a 313d 8d19 703e 61b8 a33e 81cc 003f
000001d0: d893 e13e 7096 7b3e f290 463e 9a93 4c3e
000001e0: 4657 8e3e 7cc2 983e 3b3b 0b3e ae84 033e
000001f0: d5dc d03e b5e7 fdbd a5a8 1d3e 784c b83e
00000200: 58ba 9d3e 5695 d13e 27a7 b33e ac18 c23e
00000210: ee6b e13e 3031 a33e 0a86 c03e 19d6 1e3e
00000220: a203 1c3e c6cd 3c3e 53bf 683e 8150 d63d
00000230: 94a6 963e b6d6 983e 20b2 4a3e d099 283e
00000240: 0b24 f33e 8897 8f3e 2a5d 8c3e ddcc 8e3e
00000250: edcd 8f3e 57cb 893e 39ed 0f3e 67d6 e23e
00000260: 9549 893e 4403 ee3e 55e5 7d3e 29df 7a3e
00000270: c4e3 383e 7961 413e e0cf 8f3e 57de 833e
00000280: 6e79 aa3e f757 b7ba c69b 053d 8ec3 0f3e
00000290: 7c09 b93e dd98 a93e f6a3 b43e e24b d83e
000002a0: df46 2d3e e67d 8d3e ae46 ab3e a559 2d3e
000002b0: 75b7 a63e 1462 7b3e 42a5 9c3e 2989 fe3d
000002c0: a1c9 2b3d 90c4 993e 6f13 763e 8240 fa3e
000002d0: afd1 b13e fb38 b63e bc1a e73d 69c6 ba3c
000002e0: 26b8 f43d 1fdf 2d3e 95e3 07be cf48 6e3e
000002f0: e6e5 b83e e6eb 8b3e 5523 063e ac14 c93e
00000300: cfa7 d13e ae9e ee3e 444b b93e 6b53 973e
00000310: 3994 bc3e 442d 5c3e 3e55 b23e bf8a 9a3d
00000320: 1f14 313e b9d8 a43e e58b 963e 7cfe 703e
00000330: ec1c ce3e 4743 c33e e802 433e 30fa b63d
00000340: a0ba df3e eb6d 8e3e 7e91 be3e f073 d43e
00000350: 3939 a13e a4c3 073e 4884 fb3d 1f79 913e
00000360: aa13 8e3e 4e82 9f3e 22ad 6a3e 5653 593e
00000370: 0468 173e ed74 803e caeb b83e addf bb3e
00000380: 7186 693e a46b 673d 51fc 743d 09fe 883e
00000390: a98c d93e f921 033f 6f59 973e 012b f33e
000003a0: 21e7 6c3e 4d9f 783e 98a5 a93e 34b0 343e
000003b0: 5a37 963e fe83 d83e 9a30 513e a161 453e
000003c0: b75a 3c3d 57cb 7e3e fb18 273e a90f e53e
000003d0: 4737 b23e e3f5 8f3e 5bad 3a3e 93b8 2e3e
000003e0: 30c6 503e 19ea 683e 1273 d03d 4d33 ae3e
000003f0: a293 f43e 7ba7 d63d ef29 903e 493e e03e
0.16263215 0.45758858 0.29608738 0.3854062 0.33519745 0.21752688 0.33252445 0.084502645
0.19131301 0.21780431 0.27635118 0.20936307 0.3959879 0.20191096 0.41533676 -0.030973854
0.4681452 0.34082586 0.23650616 0.29934877 0.2642603 0.20558488 0.10301532 0.4467827
0.14366898 0.3891041 0.2815015 0.06386292 0.08492278 0.16983888 0.33582905 0.33891967
0.31140488 0.06756107 0.03283243 0.15072995 0.2942939 0.31714204 0.47828862 0.3163376
0.19034098 0.32601815 0.2620753 0.21749493 0.043811444 0.33164743 0.27897155 0.12642618
0.032939963 0.32287425 0.10526321 0.39703792 0.38226187 0.34357643 0.1691961 0.12181669
0.16928977 0.18846628 -0.0036777968 0.19128174 0.41566363 0.24833979 0.09833973 0.46254274
0.32982147 0.3221647 0.4344925 0.39106873 0.5053904 0.29388055 0.28998303 0.22849683
0.20010623 0.17214946 0.34956962 0.11821172 0.26946065 0.38042971 0.25253406 -0.33325768
0.29702854 0.3389245 0.18852322 0.27456722 0.25638273 0.3155468 0.21696194 0.3415574
0.20103565 0.32894874 0.25449437 0.26721233 0.21468112 0.17146751 0.39141643 0.403344
0.34920466 0.1193725 0.104291074 0.17621824 0.1347576 0.44588614 0.44828773 0.25383317
0.35219365 0.431965 0.3360132 0.19832937 0.22337307 0.38509518 0.2749979 0.18147057
0.043299474 0.23447247 0.31976607 0.5031205 0.44058108 0.24569106 0.1939123 0.1997818
0.2780096 0.2983588 0.13596813 0.12843582 0.4079348 -0.1239771 0.15396364 0.3599584
0.30806231 0.40934247 0.35088465 0.37909448 0.44027656 0.31873465 0.37602264 0.1551136
0.15235761 0.18437871 0.22729234 0.10464574 0.29423964 0.2985131 0.19794512 0.16464925
0.47488436 0.28045297 0.2741483 0.27890673 0.28086796 0.26912948 0.14055337 0.443042
0.2681395 0.46486866 0.24794514 0.24499191 0.18055636 0.18884839 0.28088284 0.2575557
0.33295768 -0.0013988008 0.03261926 0.14039442 0.36140049 0.33124438 0.35281342 0.42245394
0.16921566 0.27635115 0.33452362 0.16928728 0.32561842 0.24549133 0.30594832 0.12428505
0.041940335 0.30032778 0.24030851 0.4887734 0.34730288 0.35590348 0.11284396 0.022799687
0.11949186 0.16979645 -0.1327041 0.23269962 0.361129 0.27328414 0.13099416 0.39273584
0.4094834 0.46605438 0.36190236 0.2955583 0.36831835 0.21501642 0.3483066 0.07545995
0.17292832 0.32196596 0.29403606 0.23534578 0.4025644 0.38137266 0.19044077 0.08934438
0.4369707 0.27818236 0.37220377 0.41494703 0.3148897 0.13258225 0.1228109 0.2841272
0.27749377 0.31154102 0.22917607 0.21223196 0.14785773 0.25089207 0.36117393 0.3669409
0.22805192 0.05649914 0.05981094 0.26756313 0.42490128 0.51223713 0.2956042 0.47493747
0.23135044 0.24279518 0.3313415 0.17645341 0.29339105 0.42288202 0.20428696 0.19275524
0.04598495 0.24882255 0.16318123 0.4473851 0.34807798 0.28117284 0.18230192 0.17062597
0.20388103 0.22745551 0.10178198 0.34023514 0.47768885 0.10481163 0.28156993 0.4379752
