experiment1/bestModels/(0.0085, 'KAN 64x64, g=5, s=3.yaml')/best_performed_model.pth (torch, 384890 bytes, 24 tensors)

representation.model.0.base_weight f4 [64, 1]
000000 1a 87 2e bf 62 20 3a 3f 22 e5 2a 3f ed a9 f0 3e
       -0.681749 0.7270566 0.6675588 0.47004643
000010 ea e2 d2 be c5 54 c3 be 70 6d 60 3f 7b fc 06 3d
       -0.41188747 -0.38150612 0.8766699 0.032955628
000020 8f 9e 24 be bc 40 65 be 75 af 20 bf 58 9d 70 3f
       -0.1607611 -0.22387975 -0.62767726 0.9399009
000030 4c 46 a1 be 58 49 e2 3e 56 3d 54 bf 59 e9 08 3f
       -0.31498945 0.44196582 -0.8290609 0.5348106
000040 b3 8c cc 3e 80 12 39 bf 91 5b 91 be ab 57 3b be
       0.39951095 -0.72293854 -0.28390172 -0.18295161
000050 0f 35 7a 3e 56 93 94 3e b0 99 42 3f 09 4c 8e 3f
       0.24434303 0.29018658 0.7601576 1.1116954
000060 3a d0 f3 be e1 70 0e 3f 2a 11 d0 be 89 82 12 bf
       -0.47619802 0.5564099 -0.40638095 -0.5723043
000070 24 2c 55 3f 70 01 22 3f 7a 77 03 bd c8 65 76 3f
       0.8327048 0.63283443 -0.032096364 0.96249056
000080 90 22 6e 3f 3e 19 13 be 0e 7c f2 3e 17 fd f0 3e
       0.9302149 -0.14365098 0.4736027 0.47068092
000090 d9 81 5e 3f b1 12 63 be 25 6b 4e 3e 4b cc 57 be
       0.8691688 -0.22175099 0.2015806 -0.21074025
0000a0 1a 2d 9c 3e c6 98 a6 be a6 79 ca bd 99 de 9d 3e
       0.3050316 -0.32538432 -0.09886484 0.3083389
0000b0 df 27 17 3f 28 81 1c 3f b2 75 fd be 4b 1c 54 be
       0.59045213 0.61134577 -0.49503857 -0.20713918
0000c0 65 1b 38 bf af 58 32 3f e8 65 44 3f c9 2b 83 3f
       -0.719168 0.6966657 0.76717997 1.0247737
0000d0 d2 d7 77 be 8b c7 90 bc f0 fa 09 bf 94 d0 22 3f
       -0.24203423 -0.017673275 -0.53898525 0.63599515
0000e0 43 9b 50 be 8d 76 34 3e ae a0 0f bf 9f ff d5 3e
       -0.20371728 0.17623349 -0.5610455 0.41796586
0000f0 9e 45 46 3f 03 3a 92 3f 7b 63 21 3f a1 a2 27 3f
       0.7744998 1.1423954 0.6304242 0.65482527

representation.model.0.spline_weight f4 [64, 1, 8]
000000 2d 03 e6 3f 29 c1 c7 3e 84 3d de bd 64 0f 40 3e
       1.7969719 0.39014557 -0.10851577 0.18755871
000010 dc 62 53 3e 3d 0e 24 3e 29 81 da bd c9 9c ec bd
       0.2064318 0.16021056 -0.106691666 -0.11553342
000020 8c 36 18 bf 9b 10 c9 be d8 ce 75 be 33 dc 6d be
       -0.5945823 -0.3927048 -0.24004686 -0.2322853
000030 80 64 03 be fa f2 37 be 89 64 66 bd 69 00 cf 3d
       -0.12831306 -0.17963782 -0.05624822 0.101075
000040 fb 67 13 bf 9c ed a3 be c5 62 41 be 5b 45 b7 bd
       -0.57580537 -0.3201722 -0.18885334 -0.089487754
000050 4c ad 66 bd 94 fa 37 bd e4 87 1b 3d c6 8a 45 3d
       -0.056317613 -0.044916704 0.037971392 0.048228048
000060 41 49 03 3f 8f d7 97 3e 52 22 3d 3e 59 4b 53 3e
       0.5128365 0.29656646 0.18470123 0.20634212
000070 de 60 cb 3d 07 d4 1b 3e 16 dd d4 3d 01 e0 b3 bd
       0.09930585 0.15217601 0.10393731 -0.0878296
000080 93 6e 40 bf 03 05 b0 be c0 3d 88 3c f2 1e 28 be
       -0.7516872 -0.34378824 0.016631007 -0.16418055
000090 a3 32 9f be 7b c2 88 be 40 4b 95 bd 27 09 38 be
       -0.3109332 -0.26710877 -0.072897434 -0.17972241
0000a0 28 f4 b6 3f c6 d1 06 3f 31 59 05 bf e2 0b a4 3e
       1.429326 0.5266384 -0.5208922 0.32040316
0000b0 35 bd c2 3d 8b e8 3e 3e cc c9 13 3e dd 37 93 3e
       0.095087446 0.18643396 0.14432448 0.28753558
0000c0 3b 59 92 be 99 1e ad be ef b9 80 be 26 d9 54 be
       -0.28583702 -0.33812407 -0.25141856 -0.2078596
0000d0 a6 60 da bd 4c 77 1d be 5c 78 62 be 9e a2 2b be
       -0.106629655 -0.1537754 -0.22116226 -0.16761252
0000e0 31 d3 19 be 5f e6 61 39 31 1f e4 3c 81 7b 0f 3d
       -0.1502197 0.00021543492 0.027846904 0.035029892
0000f0 da 8c 6c 3d 3e f0 e4 3d c5 7c df 3d 9b 04 5b 3e
       0.057751514 0.11178635 0.1091247 0.21388476
000100 49 7f 9d be 00 fb 83 be f5 5e 12 3f f7 6f 8c be
       -0.30761173 -0.25777435 0.5717614 -0.27429172
000110 0b ee ae be 71 9e 50 3e 70 93 f0 3d 99 58 81 3e
       -0.34165987 0.2037294 0.117468715 0.25262907
000120 ed 20 96 3f 29 8c e1 3e 49 a2 48 be bb d5 b2 bc
       1.1728798 0.44052246 -0.19593157 -0.02183043
000130 28 59 33 3e 98 63 ee 3d 5e ea 77 3e 4d e9 c4 3d
       0.17514479 0.1164009 0.24210498 0.09614811
000140 44 96 95 3f e1 91 bf 3e 9d 86 37 3d bd c6 93 3e
       1.1686482 0.37415984 0.04480611 0.28862563
000150 54 3e ec 3d 96 0d be 3d 55 29 2c bd 82 51 81 bd
       0.11535326 0.09279935 -0.042031605 -0.063143745
000160 36 6c 09 3e dd cb 85 3d 93 73 65 be 87 5a 1b 3f
       0.13420185 0.065330245 -0.2240737 0.6068501
000170 e2 91 ee be da 4b e9 bd d3 13 c3 bd 5c c0 00 bf
       -0.46595675 -0.11391421 -0.095252655 -0.5029352
000180 81 9c a2 3f fc c7 92 3e 51 1b f1 bd e3 53 41 3e
       1.2704011 0.286682 -0.11772788 0.18879656
000190 81 3e 8b 3e e2 cf 78 3e 8c c6 50 3e bb d2 ed 3d
       0.27196124 0.24298051 0.2038824 0.11612459
0001a0 eb 39 8a be e1 5e 9a be c1 c5 18 be 51 dd 1d be
       -0.26997313 -0.30150512 -0.14919187 -0.15416457
0001b0 5e ae 25 3d 45 da a4 bd 04 2f e0 bc 1c 13 43 3e
       0.040449493 -0.08049444 -0.027366169 0.19050258
0001c0 ff af 91 bf 1c 15 86 be ef d1 6b be a8 7f 4c be
       -1.1381835 -0.2618798 -0.23029302 -0.19970572
0001d0 49 a3 e3 3e 64 e8 1c 3f 26 96 58 3b b8 92 32 3b
       0.44460514 0.612921 0.003304848 0.0027248096
0001e0 4a 4f 0b bf be c2 ba be 36 fe 81 be 89 5f 36 be
       -0.5441786 -0.36476701 -0.2538926 -0.17809881
0001f0 5d 59 27 bd c7 c4 d1 bd e9 78 bc bd 23 57 4a bd
       -0.040856708 -0.102426104 -0.09202749 -0.049399506
000200 18 b0 7f 3e 79 15 82 3e 72 bb 11 3e d3 7d 13 3e
       0.24969518 0.25407007 0.14231661 0.14403467
000210 13 f0 1f 3e ee 9a 3f bc 97 01 93 3d 9d 59 0e 3d
       0.15618925 -0.011694653 0.071780376 0.03475343
000220 45 e8 95 3f 68 17 97 3e f7 ff 31 3d 87 60 8a 3e
       1.1711508 0.29510045 0.043456998 0.2702677
000230 01 c7 9a 3d 76 43 88 3d c5 5c da bb 7d 49 0d be
       0.07557488 0.06653492 -0.006663891 -0.13797565
000240 3a df 5d 3f fd db a4 3e 94 e2 db bd e7 00 11 3e
       0.8666874 0.32199088 -0.10736576 0.141605
000250 c8 20 00 3e 1a 20 8e 3e 14 e0 65 3e b8 fc 9c 3e
       0.12512505 0.27758867 0.2244876 0.3066156
000260 2f 89 35 be a3 ce 71 be 03 72 d8 be b3 f7 83 bd
       -0.17728113 -0.23613982 -0.42274484 -0.06443729
000270 ce d3 db 3c 99 9f e6 bd aa 41 ab bd 4c d6 8c be
       0.026834395 -0.112609096 -0.08362134 -0.27507246
000280 94 72 4e bd c9 72 60 be 24 f1 14 bd 49 fb 5a bd
       -0.05040224 -0.21918787 -0.036362782 -0.0534623
000290 8f 65 60 3d 3a ee df bd e2 a0 76 bc d1 4a 9a 3e
       0.054784354 -0.1093411 -0.015053006 0.30135205
0002a0 67 90 b7 bb cb 2a 7b ba 91 00 30 3b 94 b8 fe 39
       -0.005601931 -0.0009581267 0.0026855806 0.00048584177
0002b0 ba 49 a9 39 fd ae 40 ba 04 ef c5 ba 61 38 4e 3a
       0.00032289122 -0.0007350294 -0.001510114 0.00078666775
0002c0 1f 86 c5 3e 79 55 4e 3e e7 15 21 3e 58 10 70 3e
       0.3857889 0.20149793 0.15731011 0.23443735
0002d0 48 17 9b 3e ad 0c 62 bc 55 25 0e 3d 22 f7 81 3e
       0.302912 -0.013796967 0.03470357 0.2538386
0002e0 ce 6a 06 3f c5 49 8f 3e cf 9e 7b 3e 91 41 16 3e
       0.5250672 0.2798597 0.245723 0.14673449
0002f0 0c fb c3 ba 3d 2e 47 bd 27 c7 db 3e a6 66 12 3f
       -0.0014952137 -0.04862808 0.4292538 0.5718788
000300 53 09 ff 3e 35 98 09 3e 75 16 b6 3e e1 b8 77 3e
       0.498118 0.13436969 0.35564008 0.2419162
000310 7d 31 8f 3e 36 bb 9c 3e 35 71 82 bf 42 eb 18 c0
       0.27967444 0.3061158 -1.0190798 -2.389359
000320 3e 3f e0 3e 76 3a d8 3e 2d fd 52 3e 53 26 46 3e
       0.4379825 0.42232102 0.20604391 0.19350557
000330 a1 2a 00 3d 88 73 3e 3e 88 f9 a6 3d 5f a4 fb bd
       0.031290654 0.18598759 0.08153063 -0.12287211
000340 64 0c d1 3f fc 07 b6 3e 54 37 83 be 3f a4 56 3e
       1.6331906 0.35552967 -0.2562815 0.20961092
000350 63 39 88 3e e5 86 5c 3e 7e d6 f1 3d ed 84 e3 3d
       0.26606283 0.21535833 0.11808489 0.11109338
000360 6c 69 9d 3f e5 6a e6 3e 5f a7 03 be 7d b1 96 3e
       1.2297797 0.4500343 -0.12856816 0.29432288
000370 f8 8f 8e 3e f2 49 23 3e 5d 18 eb bd 4c c0 82 3e
       0.27844214 0.15946177 -0.11479256 0.25537336
000380 43 7b 2f 3f 28 a0 a3 3e 6f 65 81 3e 09 e9 93 3e
       0.6854746 0.31958127 0.252727 0.2888873
000390 5f 1a 8d 3e 6a 07 36 bb 37 fe ca 3d a1 f7 91 3e
       0.27559182 -0.0027775415 0.09911769 0.28509238
0003a0 9b 26 3b be bc 8a 96 be a5 fa f9 bd a6 cb aa bd
       -0.18276446 -0.2940272 -0.1220601 -0.08339624
0003b0 34 53 c5 3d 95 8a 4d bd 77 e3 af bb d1 f9 b9 3d
       0.0963501 -0.05018099 -0.005367692 0.09080852
0003c0 9c cc 44 bc 8c 6e a3 bc 35 85 8a 3b 45 00 b5 3c
       -0.012011673 -0.019950174 0.0042273053 0.022094855
0003d0 fe be 4d 3d 1a b6 72 3d ab 47 e4 3d ae 23 10 3c
       0.050230972 0.059255697 0.11146482 0.008797569
0003e0 8e 02 d9 bd ec 58 47 be 27 51 ab be 82 dd 41 bd
       -0.105961904 -0.19467515 -0.33460352 -0.047330387
0003f0 d0 12 2e 3d d1 0e 30 bd 64 43 87 be 76 63 b6 be
       0.04249841 -0.04298288 -0.26418602 -0.35622758

representation.model.0.spline_scaler f4 [64, 1]
000000 7d a4 52 3f f5 03 38 bf f0 2c 88 bf d8 b2 5c 3f
       0.8228224 -0.7188104 -1.0638714 0.86210394
000010 bb 9c 10 bf 22 d0 d6 3f 08 e4 65 be 89 30 de be
       -0.5648915 1.6782267 -0.22450268 -0.43396404
000020 2c 82 2d 3f a3 1e 54 3f 93 82 a6 3e e3 2c 96 bf
       0.6777675 0.8285925 0.32521495 -1.1732448
000030 0c 16 c8 3e 0b 03 7d bf e5 ec 80 bf c0 31 8e be
       0.3907932 -0.9883277 -1.0072294 -0.2777233
000040 ce d9 d0 3e d8 7c 31 3f 37 bf 6c 3f 24 ee 99 bf
       0.40791172 0.6933112 0.9247927 -1.20258
000050 5a 25 33 bf ae a9 e2 b8 63 3c 0b 3f 86 e9 8b 3f
       -0.6997887 -0.00010808125 0.5438902 1.0930641
000060 b1 04 b5 3f c3 8f f8 3e 67 52 d4 3e ee 0e 50 3f
       1.4142057 0.4854718 0.41469118 0.8127278
000070 3b 33 3b 3f 4b b9 dc bd 78 30 8d 3e f4 ed c2 be
       0.73125046 -0.10777529 0.2757604 -0.3807217
000080 9b 57 be be c2 18 c2 3e f7 74 49 bf 5e 12 6f 3f
       -0.37176213 0.37909514 -0.786941 0.933874
000090 06 89 fe 3e 1d bb 01 3f 6f 28 02 bf e1 50 1c bf
       0.49713916 0.5067614 -0.50842947 -0.6106091
0000a0 66 8a 01 40 d8 69 92 3f 67 d1 19 bf 80 81 e8 bf
       2.0240722 1.1438551 -0.6008515 -1.816452
0000b0 05 5d b6 bf 01 1b 09 3f 65 55 e8 3e 66 25 d9 3e
       -1.4247137 0.5355683 0.4537765 0.42411345
0000c0 9e 75 0c 3f 2e 6a 7a bf d8 f7 83 bf e3 07 59 be
       0.5486697 -0.9781827 -1.0310011 -0.21194415
0000d0 b1 72 44 bf 88 69 01 3e 3e b5 06 bf aa 6f 56 3f
       -0.76737505 0.12637913 -0.52620304 0.83764136
0000e0 61 53 85 3f a0 21 bd 3f c4 d1 2b 3f ab 5d 53 3f
       1.041607 1.4775887 0.6711695 0.825648
0000f0 ad 9c 1a 3e 6f 70 70 bf 0f 0b 61 3f 57 f1 5f bf
       0.1509883 -0.9392156 0.879075 -0.8747763

representation.model.0.grid f4 [1, 12]
000000 9a 99 19 bf cd cc cc be cd cc 4c be 00 00 00 00
       -0.6 -0.4 -0.2 0.0
000010 cd cc 4c 3e cd cc cc 3e 9a 99 19 3f cd cc 4c 3f
       0.2 0.4 0.6 0.8
000020 00 00 80 3f 9a 99 99 3f 33 33 b3 3f cd cc cc 3f
       1.0 1.2 1.4 1.6

target_representation.model.0.base_weight f4 [64, 1]
000000 1a 87 2e bf 62 20 3a 3f 22 e5 2a 3f ed a9 f0 3e
       -0.681749 0.7270566 0.6675588 0.47004643
000010 ea e2 d2 be c5 54 c3 be 70 6d 60 3f 7b fc 06 3d
       -0.41188747 -0.38150612 0.8766699 0.032955628
000020 8f 9e 24 be bc 40 65 be 75 af 20 bf 58 9d 70 3f
       -0.1607611 -0.22387975 -0.62767726 0.9399009
000030 4c 46 a1 be 58 49 e2 3e 56 3d 54 bf 59 e9 08 3f
       -0.31498945 0.44196582 -0.8290609 0.5348106
000040 b3 8c cc 3e 80 12 39 bf 91 5b 91 be ab 57 3b be
       0.39951095 -0.72293854 -0.28390172 -0.18295161
000050 0f 35 7a 3e 56 93 94 3e b0 99 42 3f 09 4c 8e 3f
       0.24434303 0.29018658 0.7601576 1.1116954
000060 3a d0 f3 be e1 70 0e 3f 2a 11 d0 be 89 82 12 bf
       -0.47619802 0.5564099 -0.40638095 -0.5723043
000070 24 2c 55 3f 70 01 22 3f 7a 77 03 bd c8 65 76 3f
       0.8327048 0.63283443 -0.032096364 0.96249056
000080 90 22 6e 3f 3e 19 13 be 0e 7c f2 3e 17 fd f0 3e
       0.9302149 -0.14365098 0.4736027 0.47068092
000090 d9 81 5e 3f b1 12 63 be 25 6b 4e 3e 4b cc 57 be
       0.8691688 -0.22175099 0.2015806 -0.21074025
0000a0 1a 2d 9c 3e c6 98 a6 be a6 79 ca bd 99 de 9d 3e
       0.3050316 -0.32538432 -0.09886484 0.3083389
0000b0 df 27 17 3f 28 81 1c 3f b2 75 fd be 4b 1c 54 be
       0.59045213 0.61134577 -0.49503857 -0.20713918
0000c0 65 1b 38 bf af 58 32 3f e8 65 44 3f c9 2b 83 3f
       -0.719168 0.6966657 0.76717997 1.0247737
0000d0 d2 d7 77 be 8b c7 90 bc f0 fa 09 bf 94 d0 22 3f
       -0.24203423 -0.017673275 -0.53898525 0.63599515
0000e0 43 9b 50 be 8d 76 34 3e ae a0 0f bf 9f ff d5 3e
       -0.20371728 0.17623349 -0.5610455 0.41796586
0000f0 9e 45 46 3f 03 3a 92 3f 7b 63 21 3f a1 a2 27 3f
       0.7744998 1.1423954 0.6304242 0.65482527

target_representation.model.0.spline_weight f4 [64, 1, 8]
000000 2d 03 e6 3f 29 c1 c7 3e 84 3d de bd 64 0f 40 3e
       1.7969719 0.39014557 -0.10851577 0.18755871
000010 dc 62 53 3e 3d 0e 24 3e 29 81 da bd c9 9c ec bd
       0.2064318 0.16021056 -0.106691666 -0.11553342
000020 8c 36 18 bf 9b 10 c9 be d8 ce 75 be 33 dc 6d be
       -0.5945823 -0.3927048 -0.24004686 -0.2322853
000030 80 64 03 be fa f2 37 be 89 64 66 bd 69 00 cf 3d
       -0.12831306 -0.17963782 -0.05624822 0.101075
000040 fb 67 13 bf 9c ed a3 be c5 62 41 be 5b 45 b7 bd
       -0.57580537 -0.3201722 -0.18885334 -0.089487754
000050 4c ad 66 bd 94 fa 37 bd e4 87 1b 3d c6 8a 45 3d
       -0.056317613 -0.044916704 0.037971392 0.048228048
000060 41 49 03 3f 8f d7 97 3e 52 22 3d 3e 59 4b 53 3e
       0.5128365 0.29656646 0.18470123 0.20634212
000070 de 60 cb 3d 07 d4 1b 3e 16 dd d4 3d 01 e0 b3 bd
       0.09930585 0.15217601 0.10393731 -0.0878296
000080 93 6e 40 bf 03 05 b0 be c0 3d 88 3c f2 1e 28 be
       -0.7516872 -0.34378824 0.016631007 -0.16418055
000090 a3 32 9f be 7b c2 88 be 40 4b 95 bd 27 09 38 be
       -0.3109332 -0.26710877 -0.072897434 -0.17972241
0000a0 28 f4 b6 3f c6 d1 06 3f 31 59 05 bf e2 0b a4 3e
       1.429326 0.5266384 -0.5208922 0.32040316
0000b0 35 bd c2 3d 8b e8 3e 3e cc c9 13 3e dd 37 93 3e
       0.095087446 0.18643396 0.14432448 0.28753558
0000c0 3b 59 92 be 99 1e ad be ef b9 80 be 26 d9 54 be
       -0.28583702 -0.33812407 -0.25141856 -0.2078596
0000d0 a6 60 da bd 4c 77 1d be 5c 78 62 be 9e a2 2b be
       -0.106629655 -0.1537754 -0.22116226 -0.16761252
0000e0 31 d3 19 be 5f e6 61 39 31 1f e4 3c 81 7b 0f 3d
       -0.1502197 0.00021543492 0.027846904 0.035029892
0000f0 da 8c 6c 3d 3e f0 e4 3d c5 7c df 3d 9b 04 5b 3e
       0.057751514 0.11178635 0.1091247 0.21388476
000100 49 7f 9d be 00 fb 83 be f5 5e 12 3f f7 6f 8c be
       -0.30761173 -0.25777435 0.5717614 -0.27429172
000110 0b ee ae be 71 9e 50 3e 70 93 f0 3d 99 58 81 3e
       -0.34165987 0.2037294 0.117468715 0.25262907
000120 ed 20 96 3f 29 8c e1 3e 49 a2 48 be bb d5 b2 bc
       1.1728798 0.44052246 -0.19593157 -0.02183043
000130 28 59 33 3e 98 63 ee 3d 5e ea 77 3e 4d e9 c4 3d
       0.17514479 0.1164009 0.24210498 0.09614811
000140 44 96 95 3f e1 91 bf 3e 9d 86 37 3d bd c6 93 3e
       1.1686482 0.37415984 0.04480611 0.28862563
000150 54 3e ec 3d 96 0d be 3d 55 29 2c bd 82 51 81 bd
       0.11535326 0.09279935 -0.042031605 -0.063143745
000160 36 6c 09 3e dd cb 85 3d 93 73 65 be 87 5a 1b 3f
       0.13420185 0.065330245 -0.2240737 0.6068501
000170 e2 91 ee be da 4b e9 bd d3 13 c3 bd 5c c0 00 bf
       -0.46595675 -0.11391421 -0.095252655 -0.5029352
000180 81 9c a2 3f fc c7 92 3e 51 1b f1 bd e3 53 41 3e
       1.2704011 0.286682 -0.11772788 0.18879656
000190 81 3e 8b 3e e2 cf 78 3e 8c c6 50 3e bb d2 ed 3d
       0.27196124 0.24298051 0.2038824 0.11612459
0001a0 eb 39 8a be e1 5e 9a be c1 c5 18 be 51 dd 1d be
       -0.26997313 -0.30150512 -0.14919187 -0.15416457
0001b0 5e ae 25 3d 45 da a4 bd 04 2f e0 bc 1c 13 43 3e
       0.040449493 -0.08049444 -0.027366169 0.19050258
0001c0 ff af 91 bf 1c 15 86 be ef d1 6b be a8 7f 4c be
       -1.1381835 -0.2618798 -0.23029302 -0.19970572
0001d0 49 a3 e3 3e 64 e8 1c 3f 26 96 58 3b b8 92 32 3b
       0.44460514 0.612921 0.003304848 0.0027248096
0001e0 4a 4f 0b bf be c2 ba be 36 fe 81 be 89 5f 36 be
       -0.5441786 -0.36476701 -0.2538926 -0.17809881
0001f0 5d 59 27 bd c7 c4 d1 bd e9 78 bc bd 23 57 4a bd
       -0.040856708 -0.102426104 -0.09202749 -0.049399506
000200 18 b0 7f 3e 79 15 82 3e 72 bb 11 3e d3 7d 13 3e
       0.24969518 0.25407007 0.14231661 0.14403467
000210 13 f0 1f 3e ee 9a 3f bc 97 01 93 3d 9d 59 0e 3d
       0.15618925 -0.011694653 0.071780376 0.03475343
000220 45 e8 95 3f 68 17 97 3e f7 ff 31 3d 87 60 8a 3e
       1.1711508 0.29510045 0.043456998 0.2702677
000230 01 c7 9a 3d 76 43 88 3d c5 5c da bb 7d 49 0d be
       0.07557488 0.06653492 -0.006663891 -0.13797565
000240 3a df 5d 3f fd db a4 3e 94 e2 db bd e7 00 11 3e
       0.8666874 0.32199088 -0.10736576 0.141605
000250 c8 20 00 3e 1a 20 8e 3e 14 e0 65 3e b8 fc 9c 3e
       0.12512505 0.27758867 0.2244876 0.3066156
000260 2f 89 35 be a3 ce 71 be 03 72 d8 be b3 f7 83 bd
       -0.17728113 -0.23613982 -0.42274484 -0.06443729
000270 ce d3 db 3c 99 9f e6 bd aa 41 ab bd 4c d6 8c be
       0.026834395 -0.112609096 -0.08362134 -0.27507246
000280 94 72 4e bd c9 72 60 be 24 f1 14 bd 49 fb 5a bd
       -0.05040224 -0.21918787 -0.036362782 -0.0534623
000290 8f 65 60 3d 3a ee df bd e2 a0 76 bc d1 4a 9a 3e
       0.054784354 -0.1093411 -0.015053006 0.30135205
0002a0 67 90 b7 bb cb 2a 7b ba 91 00 30 3b 94 b8 fe 39
       -0.005601931 -0.0009581267 0.0026855806 0.00048584177
0002b0 ba 49 a9 39 fd ae 40 ba 04 ef c5 ba 61 38 4e 3a
       0.00032289122 -0.0007350294 -0.001510114 0.00078666775
0002c0 1f 86 c5 3e 79 55 4e 3e e7 15 21 3e 58 10 70 3e
       0.3857889 0.20149793 0.15731011 0.23443735
0002d0 48 17 9b 3e ad 0c 62 bc 55 25 0e 3d 22 f7 81 3e
       0.302912 -0.013796967 0.03470357 0.2538386
0002e0 ce 6a 06 3f c5 49 8f 3e cf 9e 7b 3e 91 41 16 3e
       0.5250672 0.2798597 0.245723 0.14673449
0002f0 0c fb c3 ba 3d 2e 47 bd 27 c7 db 3e a6 66 12 3f
       -0.0014952137 -0.04862808 0.4292538 0.5718788
000300 53 09 ff 3e 35 98 09 3e 75 16 b6 3e e1 b8 77 3e
       0.498118 0.13436969 0.35564008 0.2419162
000310 7d 31 8f 3e 36 bb 9c 3e 35 71 82 bf 42 eb 18 c0
       0.27967444 0.3061158 -1.0190798 -2.389359
000320 3e 3f e0 3e 76 3a d8 3e 2d fd 52 3e 53 26 46 3e
       0.4379825 0.42232102 0.20604391 0.19350557
000330 a1 2a 00 3d 88 73 3e 3e 88 f9 a6 3d 5f a4 fb bd
       0.031290654 0.18598759 0.08153063 -0.12287211
000340 64 0c d1 3f fc 07 b6 3e 54 37 83 be 3f a4 56 3e
       1.6331906 0.35552967 -0.2562815 0.20961092
000350 63 39 88 3e e5 86 5c 3e 7e d6 f1 3d ed 84 e3 3d
       0.26606283 0.21535833 0.11808489 0.11109338
000360 6c 69 9d 3f e5 6a e6 3e 5f a7 03 be 7d b1 96 3e
       1.2297797 0.4500343 -0.12856816 0.29432288
000370 f8 8f 8e 3e f2 49 23 3e 5d 18 eb bd 4c c0 82 3e
       0.27844214 0.15946177 -0.11479256 0.25537336
000380 43 7b 2f 3f 28 a0 a3 3e 6f 65 81 3e 09 e9 93 3e
       0.6854746 0.31958127 0.252727 0.2888873
000390 5f 1a 8d 3e 6a 07 36 bb 37 fe ca 3d a1 f7 91 3e
       0.27559182 -0.0027775415 0.09911769 0.28509238
0003a0 9b 26 3b be bc 8a 96 be a5 fa f9 bd a6 cb aa bd
       -0.18276446 -0.2940272 -0.1220601 -0.08339624
0003b0 34 53 c5 3d 95 8a 4d bd 77 e3 af bb d1 f9 b9 3d
       0.0963501 -0.05018099 -0.005367692 0.09080852
0003c0 9c cc 44 bc 8c 6e a3 bc 35 85 8a 3b 45 00 b5 3c
       -0.012011673 -0.019950174 0.0042273053 0.022094855
0003d0 fe be 4d 3d 1a b6 72 3d ab 47 e4 3d ae 23 10 3c
       0.050230972 0.059255697 0.11146482 0.008797569
0003e0 8e 02 d9 bd ec 58 47 be 27 51 ab be 82 dd 41 bd
       -0.105961904 -0.19467515 -0.33460352 -0.047330387
0003f0 d0 12 2e 3d d1 0e 30 bd 64 43 87 be 76 63 b6 be
       0.04249841 -0.04298288 -0.26418602 -0.35622758

target_representation.model.0.spline_scaler f4 [64, 1]
000000 7d a4 52 3f f5 03 38 bf f0 2c 88 bf d8 b2 5c 3f
       0.8228224 -0.7188104 -1.0638714 0.86210394
000010 bb 9c 10 bf 22 d0 d6 3f 08 e4 65 be 89 30 de be
       -0.5648915 1.6782267 -0.22450268 -0.43396404
000020 2c 82 2d 3f a3 1e 54 3f 93 82 a6 3e e3 2c 96 bf
       0.6777675 0.8285925 0.32521495 -1.1732448
000030 0c 16 c8 3e 0b 03 7d bf e5 ec 80 bf c0 31 8e be
       0.3907932 -0.9883277 -1.0072294 -0.2777233
000040 ce d9 d0 3e d8 7c 31 3f 37 bf 6c 3f 24 ee 99 bf
       0.40791172 0.6933112 0.9247927 -1.20258
000050 5a 25 33 bf ae a9 e2 b8 63 3c 0b 3f 86 e9 8b 3f
       -0.6997887 -0.00010808125 0.5438902 1.0930641
000060 b1 04 b5 3f c3 8f f8 3e 67 52 d4 3e ee 0e 50 3f
       1.4142057 0.4854718 0.41469118 0.8127278
000070 3b 33 3b 3f 4b b9 dc bd 78 30 8d 3e f4 ed c2 be
       0.73125046 -0.10777529 0.2757604 -0.3807217
000080 9b 57 be be c2 18 c2 3e f7 74 49 bf 5e 12 6f 3f
       -0.37176213 0.37909514 -0.786941 0.933874
000090 06 89 fe 3e 1d bb 01 3f 6f 28 02 bf e1 50 1c bf
       0.49713916 0.5067614 -0.50842947 -0.6106091
0000a0 66 8a 01 40 d8 69 92 3f 67 d1 19 bf 80 81 e8 bf
       2.0240722 1.1438551 -0.6008515 -1.816452
0000b0 05 5d b6 bf 01 1b 09 3f 65 55 e8 3e 66 25 d9 3e
       -1.4247137 0.5355683 0.4537765 0.42411345
0000c0 9e 75 0c 3f 2e 6a 7a bf d8 f7 83 bf e3 07 59 be
       0.5486697 -0.9781827 -1.0310011 -0.21194415
0000d0 b1 72 44 bf 88 69 01 3e 3e b5 06 bf aa 6f 56 3f
       -0.76737505 0.12637913 -0.52620304 0.83764136
0000e0 61 53 85 3f a0 21 bd 3f c4 d1 2b 3f ab 5d 53 3f
       1.041607 1.4775887 0.6711695 0.825648
0000f0 ad 9c 1a 3e 6f 70 70 bf 0f 0b 61 3f 57 f1 5f bf
       0.1509883 -0.9392156 0.879075 -0.8747763

target_representation.model.0.grid f4 [1, 12]
000000 9a 99 19 bf cd cc cc be cd cc 4c be 00 00 00 00
       -0.6 -0.4 -0.2 0.0
000010 cd cc 4c 3e cd cc cc 3e 9a 99 19 3f cd cc 4c 3f
       0.2 0.4 0.6 0.8
000020 00 00 80 3f 9a 99 99 3f 33 33 b3 3f cd cc cc 3f
       1.0 1.2 1.4 1.6

eval_Qhead.model.0.base_weight f4 [64, 64]
000000 3a 6b 48 bd 8e af 57 3e 78 ba 8a 3e 31 8e ab 3e
       -0.048930384 0.21063063 0.2709539 0.3350692
000010 36 ef 6f 3e d0 3c ba bc fb 28 b6 3e 50 96 0c 3e
       0.23431095 -0.022734076 0.3557814 0.13729215
000020 f0 68 c3 3d 3e 98 d2 3e f2 98 0b 3f 20 99 29 3e
       0.095414996 0.41131777 0.5453025 0.16562319
000030 ef fb a2 bd 4b 66 84 3e 02 7a c4 3e fe 31 91 3e
       -0.07958209 0.25859293 0.38374335 0.28358454
000040 57 55 97 3e 4c 3c 71 3e 19 13 c8 3d 79 f2 88 3e
       0.29557297 0.23558158 0.097692676 0.26747492
000050 27 5e ad 3e 8f e8 99 3e 5a a9 09 3e 4f ce 94 3e
       0.33860895 0.3006024 0.13443509 0.2906365
000060 17 4f f2 3e 61 e5 7a 3e 91 f7 37 be 73 71 cc 3e
       0.47325966 0.24501564 -0.17965533 0.39930305
000070 8e 58 1f 3e 4e 76 a4 3e dd 46 ff 3d 67 78 88 3e
       0.15561125 0.3212151 0.12464688 0.2665436
000080 16 1a 05 3e 7c fa 88 3e 8a 43 94 3e 13 37 94 3e
       0.12998232 0.26753604 0.28957778 0.28948268
000090 73 70 bc 3e 19 67 cf 3d 18 8f 41 3e 02 a3 65 3e
       0.36804542 0.10127086 0.18902242 0.22425464
0000a0 bb 7a 66 3e e0 00 d9 bd 67 18 82 3e 33 24 a7 3e
       0.22507755 -0.1059587 0.25409243 0.32644805
0000b0 03 bf 24 3e c5 c4 73 3e b6 be 66 3d 26 47 05 3f
       0.1608849 0.2380553 0.05633422 0.5206169
0000c0 82 09 36 3e 26 39 8c 3e 92 fc 46 3e 74 da 89 3e
       0.17777064 0.2738735 0.19432285 0.2692448
0000d0 1b 9a d2 3e a8 f0 52 3d 39 80 e0 3e 21 44 88 3e
       0.41133198 0.05149904 0.43847826 0.26614478
0000e0 3b 83 b6 3e 5a 7c 75 3e bc 8c a2 be 84 db 53 3e
       0.35646996 0.23973218 -0.31747997 0.20689207
0000f0 93 30 00 3e 6c a9 37 3e 52 5b a0 3e 82 0d 30 3e
       0.1251853 0.17935723 0.31319672 0.17192653
000100 31 9c 02 be 5d 40 e2 bc 8d fa cc 3d d2 1f e0 3d
       -0.12754895 -0.027618581 0.10008726 0.10943569
000110 71 cb 91 be 94 54 3f 3e 20 11 04 3d 91 a1 f9 bc
       -0.28475526 0.18684608 0.032242894 -0.030472549
000120 49 7f 7b 3d 27 49 ba be 34 c2 af 3d e0 1a 93 3d
       0.061400685 -0.36383936 0.08581963 0.071828604
000130 5a 39 18 be 74 9a 0d 3e c6 3a d5 3d 82 e0 e3 3d
       -0.14865628 0.1382845 0.10411601 0.11126806
000140 47 31 d9 3d f7 91 b2 be 1c b2 b9 bd 9f eb 34 3e
       0.10605102 -0.34876987 -0.09067175 0.17668007
000150 07 8b bf 3c 51 5e a2 3d ae ba 52 bd 12 41 23 bd
       0.023381723 0.07928146 -0.051447563 -0.039856978
000160 40 51 07 3e 68 8c 78 3c ec a1 72 be a0 b4 8e be
       0.13214588 0.015170194 -0.23694581 -0.2787218
000170 28 fc b0 3c 9f 9b 08 3d 49 b5 97 3b 77 f7 49 3d
       0.021604612 0.033351537 0.004629765 0.049308266
000180 42 21 95 bd b6 14 92 bd bd c4 80 3b a7 d5 85 3d
       -0.07281734 -0.071328565 0.003929703 0.065348916
000190 ab d8 d2 bd bf b1 46 be dc c5 41 3b 2f 41 8e bc
       -0.102952324 -0.19403742 0.0029567396 -0.017365066
0001a0 6c 17 bc be 48 9e 1b bc a1 a3 07 3e 26 e8 7f 3d
       -0.3673662 -0.009498186 0.13246013 0.062477253
0001b0 57 09 2f be 58 df 08 3e b2 86 3d be 9c f6 4e bf
       -0.17093407 0.13366449 -0.18508413 -0.80845046
0001c0 df 3b b4 be d4 bd 24 bd 55 ae 24 3c 2b 72 77 3d
       -0.35201928 -0.040220097 0.01005133 0.060411613
0001d0 2f a5 6a be fd 45 d8 bd 90 71 ac be 32 ec b9 bc
       -0.22914575 -0.10560224 -0.3368039 -0.022695635
0001e0 d5 c1 b2 be c2 83 a1 be 2d 54 a9 3c 48 08 9f 3d
       -0.34913507 -0.31545836 0.020670021 0.077652514
0001f0 e7 25 9f bd 98 86 0e 3b 6b c7 a1 3d 45 f3 01 3e
       -0.07770901 0.0021747705 0.07899364 0.12690456
000200 5e 29 7e bd 07 b5 2e 3e 45 25 83 3e 50 2b 71 3e
       -0.06205117 0.17061244 0.25614372 0.23551679
000210 fb ec 08 3e 64 02 36 ba 80 fe 31 3e 31 02 27 3e
       0.13371651 -0.0006943105 0.1738224 0.1630943
000220 45 cb fa 3d be f8 33 3e 3b 63 32 3f 54 e8 1d 3e
       0.12245802 0.17575356 0.69682664 0.15420657
000230 bb c6 b7 3b 17 2a 18 3e 95 1d 04 3e ed 0e 62 3e
       0.0056084073 0.14859806 0.1290191 0.22076006
000240 02 41 9d 3e 77 08 be 3d 2e 14 0e 3e d8 f5 b8 3e
       0.3071366 0.09278958 0.13874885 0.36125064
000250 5e 81 74 3e 19 7e 4e 3e 4b ef 9c 3e ef 26 a7 3e
       0.23877475 0.2016529 0.30651316 0.3264689
000260 7d fc 59 3e 91 78 96 3e 5b 84 c1 bd ba e9 4d 3e
       0.21287723 0.2938886 -0.09449073 0.20108691
000270 71 6d 11 3e 85 86 6b 3e cb 48 c6 bd 42 02 5a 3e
       0.14201905 0.23000534 -0.09681853 0.21289924
000280 23 ce 4c 3e d9 0f be 3d 21 99 b0 3e ab 05 65 3e
       0.2000051 0.092803665 0.34491828 0.22365443
000290 77 e6 ac 3e 07 0b 0a 3e 88 dc 83 3e 15 2a 8e 3d
       0.3376958 0.13480769 0.2575419 0.0694162
0002a0 be b3 85 3e b7 1f 8f 3c 58 a9 e2 3d c5 54 0a 3e
       0.26113695 0.017471178 0.11067456 0.135089
0002b0 1e e8 88 3e b4 6d 52 3e 1b ef 6d 3d 2f a3 16 3f
       0.2673959 0.20549661 0.058089357 0.5884275
0002c0 22 66 99 3d 52 9e 84 3e 94 9b 6f 3e b5 45 10 3e
       0.074901834 0.2590204 0.23399192 0.14089091
0002d0 ab b0 e7 3d 21 c6 e4 bd 94 6e 2a bd 6e 60 1d 3e
       0.113129936 -0.111706026 -0.04160936 0.15368816
0002e0 53 d5 71 3e 41 19 be 3d 8b 9d d9 bd 50 94 54 3e
       0.23616533 0.092821606 -0.10625752 0.20759702
0002f0 28 53 87 3e 0d d9 6f 3e e6 1f 1a 3e 76 82 76 3e
       0.2643063 0.23422642 0.15051231 0.24073204
000300 28 ef 5f be e8 94 79 bc 3a d7 b1 bd 99 3d 0c be
       -0.21868575 -0.015233256 -0.08683629 -0.13695373
000310 86 6d eb 3c 85 7e 1e 3d 0f 2a d7 bc 02 4e 5c bd
       0.028738748 0.038694877 -0.026265172 -0.05378533
000320 8e a0 c5 bc f1 01 4d bd b6 8b 62 3d 87 a3 c6 bc
       -0.02412441 -0.05005068 0.05530902 -0.024247898
000330 b5 33 28 be 20 63 8b 3d 46 8e 3e 3d 71 df 8c bd
       -0.16425975 0.06806016 0.0465224 -0.068785556
000340 80 93 18 3d 17 84 02 3d 4f 98 88 3c 91 8d 3b 3e
       0.037250042 0.031864252 0.016674189 0.18315722
000350 41 fe 12 3c 89 77 88 bd 1f 8f 5e bd 67 44 a1 bd
       0.008971752 -0.066634245 -0.05433571 -0.07874375
000360 aa 54 dd 3d 68 a9 e3 3c 29 f6 69 bd a2 12 55 3d
       0.10807164 0.02779074 -0.057119522 0.052019723
000370 a2 c6 ab bd d0 94 e7 3b 50 12 3e 3d 7a 68 4b 3d
       -0.083874956 0.0070673004 0.046404183 0.049660183
000380 9d 6d 19 be a6 43 f1 bd cc 7b bf 38 0c 1e 54 3d
       -0.1498322 -0.11780481 9.130649e-05 0.051786467
000390 f9 b6 a5 bd 86 a5 6c bd 3b 0a 7a 3d 07 8c 85 3c
       -0.0809154 -0.057775043 0.061044913 0.016302122
0003a0 fd d2 16 be 2d 56 a6 3d 9c ef 8b bd 02 ef bd 3c
       -0.14728923 0.081219055 -0.06832811 0.023185257
0003b0 56 5d b0 3c 56 ac 51 3d 27 b2 60 3d e4 cb 09 bd
       0.021528881 0.051189743 0.0548574 -0.03364171
0003c0 b6 d5 bc 3d 80 1e c1 bd 21 ef a3 bd 66 b5 84 3d
       0.092204496 -0.094296455 -0.080045946 0.064799115
0003d0 12 ea c3 bc 84 6b b4 3d 72 f5 b7 3d 1e fc a8 bd
       -0.023915324 0.088095695 0.08982362 -0.082512125
0003e0 d3 73 aa 3c a1 b4 60 be 7b a9 ae bd 7f c3 b1 bd
       0.020807182 -0.21943904 -0.085284196 -0.08679866
0003f0 79 c0 1f 3d e1 37 37 3d 84 a9 a9 3d 6b 31 8a 3d
       0.039001916 0.044731025 0.08284286 0.06747707

eval_Qhead.model.0.spline_weight f4 [64, 64, 8]
000000 17 5a 3f 3e 02 7c 6b 3e 9e 9d 84 3e 9c 08 54 bb
       0.1868671 0.22996524 0.25901502 -0.0032353764
000010 49 a1 3d 3a 7b 86 41 bc e7 03 2f bb 37 77 37 37
       0.0007233811 -0.011811848 -0.0026705207 1.0935407e-05
000020 61 96 84 3d 00 d0 a3 3e ab 92 9b 3e 13 24 88 3e
       0.06473995 0.3199463 0.30385336 0.26590022
000030 4e 4f 51 3e 2c 21 32 3e 4c 7a 2a 3d 1d 6d c0 bd
       0.20440409 0.17395467 0.041620538 -0.09395812
000040 b5 6b 72 bc e8 5f 04 be 1d 41 d2 be ba 90 a4 be
       -0.014796187 -0.1292721 -0.41065302 -0.32141668
000050 87 e8 71 be eb e7 fa bd 51 e2 92 ba 61 d8 45 3c
       -0.23623858 -0.12251266 -0.0011206364 0.0120755145
000060 82 5e 37 3d df 6e 7d 3e b5 55 a4 3e 7a e2 64 3e
       0.044767864 0.24749325 0.3209664 0.22352019
000070 71 a9 17 3e b6 5a 12 3d 65 51 de bd fd 5b 59 bb
       0.1481073 0.03573104 -0.108553685 -0.0033166402
000080 16 66 81 be 6a 79 85 be 10 91 8a be ad 1e 0f bc
       -0.25273198 -0.26069194 -0.270638 -0.008735341
000090 d2 27 7e bb 63 2c 5f bc b0 1f 54 3c 74 87 92 3b
       -0.003878106 -0.013621422 0.012947008 0.0044717137
0000a0 03 01 85 be de 92 7d be 3f 5a 81 be bf 29 a0 3d
       -0.25977334 -0.24763057 -0.25264165 0.078204624
0000b0 55 8e c4 bd 0a b8 0f 3e 13 bc 5e 3c 2e 49 8a bb
       -0.0959746 0.14035049 0.013594645 -0.0042201495
0000c0 a1 65 20 3e fe 61 a7 3e 0a 94 59 3e 1d 3c 7c 3e
       0.15663768 0.3269195 0.21247879 0.24632306
0000d0 05 05 44 3e 34 38 3b 3e 64 53 cf 3d 52 94 15 be
       0.1914254 0.18283159 0.101233274 -0.14607361
0000e0 33 99 c8 3e 97 87 a8 3e a7 96 68 3e 5f f5 78 3d
       0.39179382 0.32915947 0.2271372 0.06078088
0000f0 9b 39 3c bb 3b 78 99 3a 02 ca 78 3b 00 d1 8c 3a
       -0.002872086 0.0011708805 0.0037962203 0.0010743439
000100 d9 8f 87 be 59 ad 7e be 5e 0c 74 be 8a 35 37 bb
       -0.26476935 -0.24870814 -0.23832843 -0.0027955496
000110 32 d5 b2 bb fe b0 2d bc 13 2e f9 3a 43 38 90 3a
       -0.005457544 -0.01060128 0.0019010924 0.0011003095
000120 57 dc 84 be a7 57 70 be f6 48 5a be a0 30 db bc
       -0.25949356 -0.23470937 -0.21316895 -0.026756585
000130 4b b0 b4 3c ec 90 40 bc 60 69 51 3c 55 69 8a 3b
       0.02205672 -0.011753302 0.012781471 0.0042239823
000140 16 8b 5a be 5d 4b 99 be 93 94 9e be 5c 27 21 3c
       -0.2134212 -0.2994031 -0.30972728 0.009836044
000150 a5 78 0e 3c 27 04 86 bb 90 56 42 3c 80 7a 73 3b
       0.008695756 -0.0040898505 0.011861458 0.0037151873
000160 ed ff c9 be af ae ce be 60 ba 47 be 9f 18 68 be
       -0.39453068 -0.40367648 -0.1950469 -0.22665642
000170 09 eb 00 bf d0 39 e1 bd 15 0f 5a be 3e 17 73 bd
       -0.50358635 -0.10997355 -0.21294816 -0.059348337
000180 b1 ef 81 be 3a 69 84 be 7b 0b 9e be 8a 12 49 3c
       -0.25378183 -0.25861531 -0.30868134 0.012272486
000190 e4 99 a5 bb fa e1 80 3c 7c f8 bd ba 6f f2 da ba
       -0.0050537456 0.015732754 -0.001449361 -0.0016704331
0001a0 74 e8 3a bc 5f aa 4e bd ce 93 9f 3b 85 98 db ba
       -0.01140796 -0.050455447 0.0048699146 -0.0016753828
0001b0 af 76 24 3b 4d 9d c3 3b 1e 11 83 3c e5 33 9f 3b
       0.0025095155 0.0059696794 0.015999373 0.004858481
0001c0 71 eb 7a 3e 45 f8 5d 3e 93 08 97 3e 47 a6 98 3d
       0.24503876 0.21676739 0.2949873 0.0745359
0001d0 5e 20 1e be 65 63 82 38 6b 58 0d 3c 29 8b ef 3a
       -0.15442035 6.217397e-05 0.0086270375 0.0018275726
0001e0 47 54 ef 3d 62 06 97 3e 40 1a 84 3e 61 d3 41 3e
       0.116859965 0.29497057 0.25801277 0.18928291
0001f0 81 d5 2e 3e 5c ea 6b 3c 37 11 e1 bc c8 0e 09 3b
       0.17073633 0.014399137 -0.027474029 0.0020913351
000200 a8 e4 ef 3d 53 76 8e 3e be ec 64 3e b8 26 2f 3e
       0.117135346 0.2782465 0.22355935 0.17104614
000210 7c 96 84 3d 21 ba ab bd ac 39 3c 3b a4 eb 18 b7
       0.06474015 -0.08385111 0.0028720899 -9.11477e-06
000220 13 76 30 3e 8a 37 4d 3e 6a 1d 3e 3e 55 83 32 3c
       0.17232542 0.20040718 0.18565908 0.01089557
000230 d0 56 35 bb e1 ed ee bb 81 c7 7e bb 2b d6 0c ba
       -0.0027670152 -0.007291541 -0.0038876238 -0.00053724897
000240 67 fb 8b 3e 47 b5 75 3e 8b b7 6e 3e f3 a0 87 3d
       0.27340242 0.23994933 0.23312204 0.066224955
000250 de 8e 00 bd 63 9b 46 3c 72 54 4e bb ea 89 aa ba
       -0.03138625 0.012122008 -0.0031483439 -0.0013011072
000260 a1 c6 8f 3e 50 73 8d 3e 26 2f 7d 3e 9b 81 86 3e
       0.2808123 0.2762704 0.24725017 0.26270756
000270 ed fd c5 3c de 44 c1 bd 57 99 85 3c e7 f3 ba 3b
       0.024168933 -0.094369635 0.01630847 0.005705345
000280 94 cc 21 3e f6 89 c2 3e f8 1d 73 3e 07 ec 22 3e
       0.15800697 0.3799588 0.23741901 0.1591035
000290 41 41 ae 3d 8d 61 80 bd 38 e8 34 3c 13 77 90 3b
       0.0850854 -0.06268606 0.011041693 0.004408726
0002a0 76 3e 4d be 43 99 7e be 8d d5 53 be 8b f8 01 be
       -0.20043358 -0.24863152 -0.20686932 -0.12692468
0002b0 75 98 89 bc 37 c5 50 3c bc 5a ad 3a ac 2b 81 ba
       -0.01679633 0.012742332 0.0013225893 -0.0009854934
0002c0 09 39 39 be 4a a2 a5 be bf a1 54 be a4 6e 8e be
       -0.18088163 -0.3235038 -0.20764826 -0.27818787
0002d0 11 6b 5a be 51 fe 19 be 69 16 6d 3a 9d 31 94 3a
       -0.21329905 -0.1503842 0.0009044172 0.001130629
0002e0 18 10 82 3c 1f af 6c 3e 0b 53 b7 3e e4 59 7b 3e
       0.015876815 0.23113678 0.35805544 0.2454601
0002f0 3d b4 81 3e 90 8a 43 3e 3b d1 37 3e 08 b0 10 3e
       0.25332823 0.19095826 0.17950909 0.1412965
000300 6a 99 08 3e 25 bc 7e 3e 81 1b 8f 3e c4 41 73 3e
       0.13339773 0.24876459 0.2795067 0.23755556
000310 b0 b1 ad 3c 19 d9 92 bc 8a 57 ce bb bb 95 14 bb
       0.021202892 -0.017925786 -0.0062970566 -0.0022672254
000320 d7 f0 d6 3d 87 40 be 3e 71 12 99 3e 0c 57 64 3e
       0.10495155 0.37158605 0.29896882 0.22298831
000330 e1 17 35 3e 23 7b c3 3d 70 41 95 bd 4b f7 97 ba
       0.1768489 0.09544971 -0.07287872 -0.0011594085
000340 e4 7d 6c be 9a 99 8e be 8a 94 9e be 8d 51 52 3c
       -0.23094898 -0.27851564 -0.309727 0.012836826
000350 09 89 55 bc c8 44 fa bb 15 85 2e 3b ef 9a 79 3a
       -0.01303316 -0.007637594 0.0026629616 0.0009521683
000360 0c 57 30 3e 15 3f 3a 3e 34 46 45 3e b5 c8 59 3d
       0.17220706 0.18188126 0.19265062 0.053169925
000370 97 b1 48 bd 12 f8 06 3c 9e 56 61 bc 02 17 94 bb
       -0.048997488 0.0082378555 -0.013753561 -0.0045193443
000380 c4 01 4a bd 54 63 ab be b6 ed 78 be a8 15 86 be
       -0.04931809 -0.3347422 -0.2430943 -0.26188397
000390 ff 92 5c be c2 a6 48 be 87 c9 d2 bd 82 b3 5e 3e
       -0.2154045 -0.19594863 -0.102923445 0.21748164
0003a0 dc e3 92 3e e9 83 92 3e fd 3c 89 3e ff 72 83 3e
       0.28689468 0.28616264 0.26804343 0.25673673
0003b0 8f 06 39 3e 9b 0f d6 3d ca 1a d9 bd 72 00 c5 b9
       0.18068908 0.10452195 -0.10600813 -0.000375751
0003c0 b5 c2 7a be e0 d1 82 be 71 4a 76 be e4 99 17 3c
       -0.24488337 -0.25550747 -0.24051835 0.009252999
0003d0 47 4b 2e 3b c5 a2 a1 3b ac 5b 6d bc 7e 78 8a bb
       0.0026595162 0.0049327337 -0.014487188 -0.0042257896
0003e0 43 08 44 bd 54 a9 a6 be 52 a4 3d be 2a 76 50 be
       -0.04785944 -0.32551062 -0.18519714 -0.20357576
0003f0 01 6b 3f be 0c 74 19 be 9d 01 31 be 8d c5 a1 3d
       -0.18693163 -0.14985675 -0.17285772 0.07899008

eval_Qhead.model.0.spline_scaler f4 [64, 64]
000000 51 7a 5c 3e a9 70 b2 3e 47 22 aa be dc 61 80 3e
       0.21531035 0.34851578 -0.33229277 0.2507466
000010 30 95 af be 02 c6 b7 be 1e 34 73 3e c0 55 b9 3e
       -0.3429351 -0.35893255 0.2375035 0.36198235
000020 1f 60 92 be d0 e1 82 be e9 8b ad be 3a 21 a0 be
       -0.2858896 -0.25562906 -0.33895805 -0.3127535
000030 b6 61 ac be 7f df 47 ba 63 1c 6c 3e f4 86 6c 3e
       -0.33668298 -0.0007624551 0.23057704 0.23098356
000040 31 df 52 3e 24 d1 39 3e 40 97 90 3e 99 a4 9e 3e
       0.20592953 0.18146187 0.28240395 0.30984953
000050 08 45 95 3e 2e 7d 60 be 89 06 92 be 5b e8 92 3e
       0.2915423 -0.21922752 -0.2852061 0.28692898
000060 b6 46 70 3e 7c 51 ad 3e 5c a1 99 be cd da 36 3e
       0.23464474 0.3385123 -0.3000592 0.17856903
000070 14 e6 87 be 5a e7 92 3e 55 56 94 be d3 e5 3e be
       -0.26542723 0.28692132 -0.28972116 -0.18642358
000080 31 ae ac be 0b 25 a6 3e 16 fe 97 be aa 13 8b be
       -0.33726647 0.32450137 -0.2968604 -0.2716344
000090 a3 c8 af 3e 41 fb 98 be b7 5a ad 3e 14 f4 81 be
       0.3433276 -0.29879192 0.33858272 -0.2538153
0000a0 a6 1c 51 3e ce 9b 98 3e 01 1d 96 be 6e f2 b8 be
       0.20421085 0.2980637 -0.29319003 -0.3612246
0000b0 a8 0f 82 3e 5b 9c 81 be 71 83 a1 3e e7 ad a1 3e
       0.2540257 -0.25314602 0.31545594 0.3157799
0000c0 fb ec 52 3e 90 3f a6 be 72 d8 97 3e 47 dd 3f be
       0.20598213 -0.3247037 0.29657322 -0.18736754
0000d0 60 24 a6 3e c3 85 8a 37 ea 13 71 be e2 40 8b be
       0.32449627 1.651317e-05 -0.23542753 -0.2719794
0000e0 de e5 a1 3e 35 91 a7 3e 31 a3 90 3e f9 ed 58 be
       0.31620687 0.32727972 0.28249505 -0.2118453
0000f0 62 48 32 3a 05 36 a3 be a2 17 80 3e 72 c0 ab be
       0.0006800947 -0.3187715 0.2501803 -0.33545262
000100 5e 12 4f 3b 50 7d a6 3b 61 88 6e 39 71 ff 3e 3a
       0.003159664 0.0050808564 0.00022748254 0.00072859885
000110 f6 74 99 ba d5 a5 8b 3e 02 4c c4 ba d7 87 2b ba
       -0.0011707831 0.27274957 -0.0014976265 -0.0006543374
000120 8e ba 54 bc f9 83 5b 3a 8f 12 e5 3b b9 1f 5d bf
       -0.012983931 0.00083738525 0.0069907377 -0.8637653
000130 d9 47 5a 39 d8 74 8f 3a 02 64 84 bc 64 85 c0 3b
       0.00020816865 0.0010944856 -0.016160969 0.0058752764
000140 81 2c 94 bb 80 c2 71 bb d3 ca 74 3b 08 dd da 39
       -0.004521907 -0.0036889613 0.0037352338 0.0004174488
000150 32 5a 71 39 0f e7 af 38 98 cb 5a bb 16 54 00 be
       0.00023017151 8.387688e-05 -0.0033385511 -0.12532076
000160 b4 b3 36 3e 4a 9b c1 bb c0 01 d6 3a d9 24 5d bb
       0.17841989 -0.0059084045 0.0016327426 -0.0033743887
000170 b9 85 15 3c a2 00 f2 3a a3 af f9 39 c7 40 00 3e
       0.00912612 0.0018463323 0.0004762384 0.1252471
000180 84 ef f9 bd 76 ba 01 3b 34 75 90 3b 4c bf 28 3e
       -0.12203887 0.0019794977 0.004408503 0.16479224
000190 b1 32 ee 3b 27 e3 d2 ba ed 28 19 3a 6a ef fc 3b
       0.0072692265 -0.0016089425 0.0005842585 0.00771897
0001a0 48 21 90 bf 00 b1 3c bc 39 e4 d6 3b fa cf c1 bf
       -1.1260157 -0.011516809 0.006557968 -1.5141594
0001b0 bb b0 02 3f b8 8f f8 39 52 1e 92 3a 4d a1 6c ba
       0.5105092 0.00047409325 0.0011147952 -0.0009026721
0001c0 5a 25 0f bb 62 34 c9 be 6f c3 04 bc fe 4a 21 3c
       -0.0021842332 -0.39297777 -0.008103236 0.00984454
0001d0 3f aa 2f 3b 00 6f ac b7 01 c4 c7 ba 3d 83 85 3a
       0.0026804355 -2.0555686e-05 -0.0015240909 0.0010186207
0001e0 68 79 73 ba c2 6c 32 3b 38 3e e3 37 89 d9 4e b9
       -0.00092878053 0.002722547 2.7089482e-05 -0.00019726729
0001f0 14 39 29 3c 5a ca 4a bb 16 b3 4e ba b2 70 8c 3b
       0.01032855 -0.0030943365 -0.0007884962 0.0042858953
000200 30 65 aa 3e 68 29 a1 3e 9f 19 6f 3e 02 c7 ce b8
       0.33280325 0.31476903 0.23349617 -9.8599136e-05
000210 33 b6 b3 be 70 ba 85 be 79 a4 9d 3e 1f dc 86 3e
       -0.35099944 -0.26118803 0.30789545 0.26339814
000220 d0 3c a2 3e a6 bc 7c be 09 05 9a 3e 00 ed 8b 3e
       0.3168702 -0.24681339 0.30081967 0.27329254
000230 94 b6 8d be d3 63 73 3e 9c 73 ad be 22 b3 73 be
       -0.2767836 0.23768549 -0.33877265 -0.23798802
000240 16 c7 80 3e 26 62 81 be cc 12 95 be bc da 85 be
       0.2515189 -0.25270194 -0.29115903 -0.26143444
000250 63 0c 92 be 0b 70 81 be f4 6b ac 3e 0e e4 6d b9
       -0.28525075 -0.25280795 0.33676112 -0.00022687038
000260 61 65 a2 3e a4 b7 ab be 62 e5 98 3e 37 75 82 3e
       0.3171797 -0.33538544 0.29862505 0.25480053
000270 d8 6e 93 3e 04 da 8e be f3 32 92 3e 09 6e 83 be
       0.28795505 -0.27900708 0.28554496 -0.25669888
000280 eb 3e 87 3e ba fa 83 be 2d 5d a9 3e f5 78 87 be
       0.2641519 -0.25777227 0.330789 -0.2645947
000290 09 0f a5 3e 3d 40 b1 3e de cc 66 3e dd 87 a4 be
       0.32238033 0.34619322 0.22539088 -0.32134905
0002a0 2c df 72 be 0d 54 98 3e 32 61 8b 3e d6 61 b4 3e
       -0.23717946 0.29751626 0.27222592 0.35230893
0002b0 05 73 88 be 40 c9 8e be cc d0 a1 be 94 59 71 be
       -0.26650253 -0.27887917 -0.31604612 -0.23569328
0002c0 39 b5 9a be 3b ae 62 3e e6 69 8b 3e 38 51 8d be
       -0.30216387 0.22136776 0.27229232 -0.27601027
0002d0 d4 9d 9a 3e 97 9c 92 be 0d c1 94 be 1f a2 bf be
       0.30198538 -0.28635094 -0.29053536 -0.37428376
0002e0 b6 57 7f 3e 95 24 b3 3e 44 8a 78 3e 88 9d b0 be
       0.24935803 0.34988847 0.24271494 -0.34495187
0002f0 bd 8f 9b 3e 0e af 7f 3e 05 af aa be 3f 45 95 be
       0.303831 0.24969122 -0.33336654 -0.29154393
000300 31 07 d7 b8 ff 2b 13 3b 85 cd 52 ba a9 00 12 b9
       -0.000102533384 0.0022456644 -0.0008041489 -0.00013923891
000310 79 fa 2d 3d 8f 49 c3 ba bd bc 12 ba 7c b9 ae 3a
       0.042475197 -0.0014899242 -0.0005597582 0.0013330425
000320 c4 3d e0 39 4a 12 26 39 ff b6 6b b8 cc 76 03 3a
       0.00042770628 0.00015837807 -5.6198794e-05 0.00050149555
000330 4f bb a6 b9 88 1c ce ba c9 a5 86 bd 75 a4 b7 b9
       -0.00031801543 -0.0015725056 -0.0657459 -0.0003502701
000340 e5 fd 38 3a d9 28 83 3d 3d 4e 31 b9 11 50 f7 ba
       0.0007056876 0.064042754 -0.00016909181 -0.0018868466
000350 8f 24 49 3b d5 10 b4 39 6d 61 81 bb f7 ad 4d 3d
       0.0030691957 0.00034344816 -0.0039483816 0.050214734
000360 07 a7 18 3b 8d ea 5c 39 3e 96 0e 3a 1e d0 8f bd
       0.0023292915 0.00021068212 0.0005439258 -0.07022117
000370 06 ad 1d 3d c4 d3 38 b9 18 c1 2a 37 06 67 5b bd
       0.038495086 -0.00017626496 1.0177748e-05 -0.053565048
000380 de d8 f2 3b 33 60 38 b9 29 f4 bf 39 c8 d6 9b 3a
       0.0074111065 -0.00017583444 0.00036612272 0.0011889571
000390 7e 04 e5 3a 10 b6 41 ba 98 12 8e b9 9c ba 60 bb
       0.0017472652 -0.0007389495 -0.00027098204 -0.0034290915
0003a0 f4 ff 2d bc 28 44 8d 3a 49 22 33 ba 02 51 4e bb
       -0.010620106 0.0010777758 -0.0006833417 -0.003148139
0003b0 da f5 93 3d e9 d5 af 3a fc 2d 06 bb 63 f3 b7 b9
       0.07224627 0.0013415191 -0.0020474186 -0.00035085817
0003c0 a0 69 0e 3d 32 d0 b6 3b 52 27 9b b9 62 ae 8c 3a
       0.0347687 0.005579018 -0.000295932 0.0010733122
0003d0 f7 15 8c 39 52 07 6f 36 b0 56 8e 3a 63 d4 99 3a
       0.00026719246 3.5618036e-06 0.0010859575 0.001173627
0003e0 e7 00 a2 b9 8c 78 3a 3e 74 03 69 39 53 02 9f 38
       -0.0003089972 0.18210047 0.00022221898 7.582144e-05
0003f0 e4 9d 8b bd 8b 3a d1 3c cd 21 87 ba a9 81 2f 3a
       -0.068172246 0.02554061 -0.0010309756 0.0006695041

eval_Qhead.model.0.grid f4 [64, 12]
000000 9a 99 19 bf cd cc cc be cd cc 4c be 00 00 00 00
       -0.6 -0.4 -0.2 0.0
000010 cd cc 4c 3e cd cc cc 3e 9a 99 19 3f cd cc 4c 3f
       0.2 0.4 0.6 0.8
000020 00 00 80 3f 9a 99 99 3f 33 33 b3 3f cd cc cc 3f
       1.0 1.2 1.4 1.6
000030 9a 99 19 bf cd cc cc be cd cc 4c be 00 00 00 00
       -0.6 -0.4 -0.2 0.0
000040 cd cc 4c 3e cd cc cc 3e 9a 99 19 3f cd cc 4c 3f
       0.2 0.4 0.6 0.8
000050 00 00 80 3f 9a 99 99 3f 33 33 b3 3f cd cc cc 3f
       1.0 1.2 1.4 1.6
000060 9a 99 19 bf cd cc cc be cd cc 4c be 00 00 00 00
       -0.6 -0.4 -0.2 0.0
000070 cd cc 4c 3e cd cc cc 3e 9a 99 19 3f cd cc 4c 3f
       0.2 0.4 0.6 0.8
000080 00 00 80 3f 9a 99 99 3f 33 33 b3 3f cd cc cc 3f
       1.0 1.2 1.4 1.6
000090 9a 99 19 bf cd cc cc be cd cc 4c be 00 00 00 00
       -0.6 -0.4 -0.2 0.0
0000a0 cd cc 4c 3e cd cc cc 3e 9a 99 19 3f cd cc 4c 3f
       0.2 0.4 0.6 0.8
0000b0 00 00 80 3f 9a 99 99 3f 33 33 b3 3f cd cc cc 3f
       1.0 1.2 1.4 1.6
0000c0 9a 99 19 bf cd cc cc be cd cc 4c be 00 00 00 00
       -0.6 -0.4 -0.2 0.0
0000d0 cd cc 4c 3e cd cc cc 3e 9a 99 19 3f cd cc 4c 3f
       0.2 0.4 0.6 0.8
0000e0 00 00 80 3f 9a 99 99 3f 33 33 b3 3f cd cc cc 3f
       1.0 1.2 1.4 1.6
0000f0 9a 99 19 bf cd cc cc be cd cc 4c be 00 00 00 00
       -0.6 -0.4 -0.2 0.0
000100 cd cc 4c 3e cd cc cc 3e 9a 99 19 3f cd cc 4c 3f
       0.2 0.4 0.6 0.8
000110 00 00 80 3f 9a 99 99 3f 33 33 b3 3f cd cc cc 3f
       1.0 1.2 1.4 1.6
000120 9a 99 19 bf cd cc cc be cd cc 4c be 00 00 00 00
       -0.6 -0.4 -0.2 0.0
000130 cd cc 4c 3e cd cc cc 3e 9a 99 19 3f cd cc 4c 3f
       0.2 0.4 0.6 0.8
000140 00 00 80 3f 9a 99 99 3f 33 33 b3 3f cd cc cc 3f
       1.0 1.2 1.4 1.6
000150 9a 99 19 bf cd cc cc be cd cc 4c be 00 00 00 00
       -0.6 -0.4 -0.2 0.0
000160 cd cc 4c 3e cd cc cc 3e 9a 99 19 3f cd cc 4c 3f
       0.2 0.4 0.6 0.8
000170 00 00 80 3f 9a 99 99 3f 33 33 b3 3f cd cc cc 3f
       1.0 1.2 1.4 1.6
000180 9a 99 19 bf cd cc cc be cd cc 4c be 00 00 00 00
       -0.6 -0.4 -0.2 0.0
000190 cd cc 4c 3e cd cc cc 3e 9a 99 19 3f cd cc 4c 3f
       0.2 0.4 0.6 0.8
0001a0 00 00 80 3f 9a 99 99 3f 33 33 b3 3f cd cc cc 3f
       1.0 1.2 1.4 1.6
0001b0 9a 99 19 bf cd cc cc be cd cc 4c be 00 00 00 00
       -0.6 -0.4 -0.2 0.0
0001c0 cd cc 4c 3e cd cc cc 3e 9a 99 19 3f cd cc 4c 3f
       0.2 0.4 0.6 0.8
0001d0 00 00 80 3f 9a 99 99 3f 33 33 b3 3f cd cc cc 3f
       1.0 1.2 1.4 1.6
0001e0 9a 99 19 bf cd cc cc be cd cc 4c be 00 00 00 00
       -0.6 -0.4 -0.2 0.0
0001f0 cd cc 4c 3e cd cc cc 3e 9a 99 19 3f cd cc 4c 3f
       0.2 0.4 0.6 0.8
000200 00 00 80 3f 9a 99 99 3f 33 33 b3 3f cd cc cc 3f
       1.0 1.2 1.4 1.6
000210 9a 99 19 bf cd cc cc be cd cc 4c be 00 00 00 00
       -0.6 -0.4 -0.2 0.0
000220 cd cc 4c 3e cd cc cc 3e 9a 99 19 3f cd cc 4c 3f
       0.2 0.4 0.6 0.8
000230 00 00 80 3f 9a 99 99 3f 33 33 b3 3f cd cc cc 3f
       1.0 1.2 1.4 1.6
000240 9a 99 19 bf cd cc cc be cd cc 4c be 00 00 00 00
       -0.6 -0.4 -0.2 0.0
000250 cd cc 4c 3e cd cc cc 3e 9a 99 19 3f cd cc 4c 3f
       0.2 0.4 0.6 0.8
000260 00 00 80 3f 9a 99 99 3f 33 33 b3 3f cd cc cc 3f
       1.0 1.2 1.4 1.6
000270 9a 99 19 bf cd cc cc be cd cc 4c be 00 00 00 00
       -0.6 -0.4 -0.2 0.0
000280 cd cc 4c 3e cd cc cc 3e 9a 99 19 3f cd cc 4c 3f
       0.2 0.4 0.6 0.8
000290 00 00 80 3f 9a 99 99 3f 33 33 b3 3f cd cc cc 3f
       1.0 1.2 1.4 1.6
0002a0 9a 99 19 bf cd cc cc be cd cc 4c be 00 00 00 00
       -0.6 -0.4 -0.2 0.0
0002b0 cd cc 4c 3e cd cc cc 3e 9a 99 19 3f cd cc 4c 3f
       0.2 0.4 0.6 0.8
0002c0 00 00 80 3f 9a 99 99 3f 33 33 b3 3f cd cc cc 3f
       1.0 1.2 1.4 1.6
0002d0 9a 99 19 bf cd cc cc be cd cc 4c be 00 00 00 00
       -0.6 -0.4 -0.2 0.0
0002e0 cd cc 4c 3e cd cc cc 3e 9a 99 19 3f cd cc 4c 3f
       0.2 0.4 0.6 0.8
0002f0 00 00 80 3f 9a 99 99 3f 33 33 b3 3f cd cc cc 3f
       1.0 1.2 1.4 1.6
000300 9a 99 19 bf cd cc cc be cd cc 4c be 00 00 00 00
       -0.6 -0.4 -0.2 0.0
000310 cd cc 4c 3e cd cc cc 3e 9a 99 19 3f cd cc 4c 3f
       0.2 0.4 0.6 0.8
000320 00 00 80 3f 9a 99 99 3f 33 33 b3 3f cd cc cc 3f
       1.0 1.2 1.4 1.6
000330 9a 99 19 bf cd cc cc be cd cc 4c be 00 00 00 00
       -0.6 -0.4 -0.2 0.0
000340 cd cc 4c 3e cd cc cc 3e 9a 99 19 3f cd cc 4c 3f
       0.2 0.4 0.6 0.8
000350 00 00 80 3f 9a 99 99 3f 33 33 b3 3f cd cc cc 3f
       1.0 1.2 1.4 1.6
000360 9a 99 19 bf cd cc cc be cd cc 4c be 00 00 00 00
       -0.6 -0.4 -0.2 0.0
000370 cd cc 4c 3e cd cc cc 3e 9a 99 19 3f cd cc 4c 3f
       0.2 0.4 0.6 0.8
000380 00 00 80 3f 9a 99 99 3f 33 33 b3 3f cd cc cc 3f
       1.0 1.2 1.4 1.6
000390 9a 99 19 bf cd cc cc be cd cc 4c be 00 00 00 00
       -0.6 -0.4 -0.2 0.0
0003a0 cd cc 4c 3e cd cc cc 3e 9a 99 19 3f cd cc 4c 3f
       0.2 0.4 0.6 0.8
0003b0 00 00 80 3f 9a 99 99 3f 33 33 b3 3f cd cc cc 3f
       1.0 1.2 1.4 1.6
0003c0 9a 99 19 bf cd cc cc be cd cc 4c be 00 00 00 00
       -0.6 -0.4 -0.2 0.0
0003d0 cd cc 4c 3e cd cc cc 3e 9a 99 19 3f cd cc 4c 3f
       0.2 0.4 0.6 0.8
0003e0 00 00 80 3f 9a 99 99 3f 33 33 b3 3f cd cc cc 3f
       1.0 1.2 1.4 1.6
0003f0 9a 99 19 bf cd cc cc be cd cc 4c be 00 00 00 00
       -0.6 -0.4 -0.2 0.0
